pre_trained_models/HUWIE_Net_I2IM_epoch50.pth (torch, 751710 bytes, 14 tensors)

i2im_conv1.weight f4 [64, 3, 3, 3]
000000 78 5a 07 3c 9f 49 27 3e 79 2a 40 3c fd 1a f2 bd
       0.0082613155 0.16336678 0.011728876 -0.11821554
000010 6d 6d ce bd a6 9e 32 3e f7 1f c3 bc 35 fa 3b be
       -0.10079465 0.17443332 -0.023818953 -0.18357165
000020 57 11 a2 bd fa d4 20 be 0b 35 99 3e 94 40 ca 3d
       -0.079134636 -0.15706244 0.2992328 0.098755985
000030 79 2c 98 3d e4 f6 b2 3d 22 c3 7e 3c 53 b3 b0 bb
       0.074303575 0.08738497 0.015549453 -0.005392471
000040 0c 74 4a 3e b2 59 9b bd 4f 07 ff bd 3b 6d 74 3e
       0.19770831 -0.075854674 -0.12452566 0.23869793
000050 61 15 81 3d 10 36 f0 3d 24 e0 3b be e3 7d 84 3e
       0.06302906 0.117290616 -0.18347222 0.25877294
000060 fa b2 78 3d e0 f4 a0 bd 00 8c 8b 3d 5d 70 71 3e
       0.06071756 -0.07859206 0.06813812 0.2357802
000070 42 95 7b be ff 60 4b 3e 8a f0 c0 bd 07 60 0a be
       -0.24568656 0.1986122 -0.09420879 -0.13513194
000080 e8 1f 86 bd bd 87 02 3e 4d 7b 3e 3c e5 64 80 bd
       -0.065490544 0.12747093 0.011626077 -0.06269244
000090 68 f0 f8 bd ea 96 fd bd 26 02 b6 3c 5b 77 55 bc
       -0.12155229 -0.123823 0.022217821 -0.013028945
0000a0 03 30 3c ba 05 3b cf bc 65 3c cf bd 95 c8 dd 3d
       -0.0007178785 -0.025296697 -0.10118941 0.108292736
0000b0 3f f4 00 be 5e 3d c5 bd ca 99 00 bc 87 05 b1 3d
       -0.12593172 -0.096308455 -0.007849166 0.086436324
0000c0 49 3e e7 bd 19 0b 80 3d b5 13 58 3e a4 43 d7 3d
       -0.11291177 0.06252117 0.21101268 0.10510948
0000d0 e8 c7 b8 bd 99 d0 db 3d 34 aa 9c bd a9 25 42 be
       -0.09022504 0.10733146 -0.07649651 -0.18959679
0000e0 dd a4 2c 3e 83 b8 8f 3d c8 c8 d1 3d ea e0 b0 3d
       0.16859765 0.07017615 0.10243374 0.08636649
0000f0 f8 75 22 bc e9 3b fa bc 22 2f de 3d 60 b1 2a be
       -0.009915821 -0.030546146 0.108488336 -0.16669226
000100 39 63 02 be 57 34 b6 3d 91 98 1e be 17 28 c8 3d
       -0.12733163 0.08896702 -0.15487887 0.097732715
000110 68 d4 89 bd 67 05 4d be d5 7c 3d be bb 86 22 3e
       -0.067299664 -0.20021592 -0.18504651 0.15871708
000120 21 0a e3 bd 5d 43 17 3e dd 05 09 3e a9 3b 94 bd
       -0.11085916 0.14771791 0.13381143 -0.07237942
000130 e4 d5 f3 3d 2f 79 25 3e ed e5 ed bd 45 f5 45 be
       0.11906031 0.16159509 -0.116161205 -0.19331844
000140 21 ab 9c bc c0 98 56 bd 99 48 53 be c3 23 25 3d
       -0.01912457 -0.052391768 -0.20633163 0.04031731
000150 cc 2d 17 be 8c 29 96 3d 5c 8c f2 bb a7 0c 22 be
       -0.14763564 0.07332143 -0.007401986 -0.15825139
000160 2d 7f 36 3e 9c 90 fe 3d 04 52 d1 bc e7 f5 09 3e
       0.17821951 0.12429926 -0.025551803 0.1347271
000170 2c dd cd 3d 94 02 cd 3b f4 47 13 3d 3e 93 4c be
       0.10051951 0.006256411 0.03595729 -0.19978043
000180 a6 80 1d 3e 94 29 a5 3d 13 d6 63 be d2 15 e9 3d
       0.15381107 0.08064571 -0.22249632 0.11381115
000190 ef 5e 9d 3d bb c2 71 bd f2 49 63 be d2 c1 82 bc
       0.07684123 -0.0590236 -0.22196177 -0.015961561
0001a0 6f 62 00 3e f9 f8 ca 3d 3f 82 a9 bc 3a 8b 43 be
       0.1253755 0.09910769 -0.020691989 -0.1909608
0001b0 50 29 25 3e 91 83 94 bb d2 54 83 3d ca 24 12 be
       0.1612904 -0.0045322855 0.064126626 -0.14271846
0001c0 ca ca eb 3d 33 57 00 be 74 e5 d1 bd 21 c3 c4 bd
       0.11513288 -0.12533264 -0.10248843 -0.096075304
0001d0 8e e1 f6 bd aa ba 6d 3e a4 c2 b4 3d 7c c2 f7 bd
       -0.1205474 0.23215738 0.08826187 -0.12097642
0001e0 a1 07 38 3e be 55 ac bc 68 d9 dd 3d 2a b9 9b 3d
       0.1797166 -0.021036979 0.108324826 0.076036766
0001f0 00 a3 11 3c e3 d9 bd 3c 63 09 98 bd d4 0b 38 be
       0.00888896 0.023175186 -0.074236654 -0.17973262
000200 1b 0e 3d bd 6a 0b 38 3e e2 e2 87 3d 6e 23 eb bc
       -0.04615603 0.17973104 0.06635071 -0.028703418
000210 ac ff 53 bd f5 71 e5 bd c8 c1 14 3e 71 d5 27 3e
       -0.0517575 -0.11203376 0.14527047 0.16390015
000220 4f af 4e 3e 20 2d 4b 3c 0b 60 a9 bc 9f b9 5b 3d
       0.20184062 0.012400895 -0.02067568 0.05364382
000230 c0 10 2a bd 43 96 8c be c8 e1 e2 3d ee f2 65 be
       -0.04151988 -0.2745839 0.110782206 -0.22455952
000240 1d 1c 84 3e b4 47 58 3e a8 ee 18 be 70 7e 48 bd
       0.258027 0.21121103 -0.1493479 -0.048948705
000250 d0 3f b9 3c 73 c2 c3 bd 08 67 a1 3d 26 cf b4 bc
       0.022613436 -0.095585726 0.0788098 -0.022071432
000260 05 a6 5e 3e 70 eb b2 bd 75 63 2b 3e a0 81 91 bd
       0.21743019 -0.087363124 0.16737159 -0.07104802
000270 cb a0 e7 3b 95 58 fc bc 46 ba 13 be 38 88 22 be
       0.0070687286 -0.030803958 -0.14426526 -0.15872276
000280 40 ca eb 3c 47 40 8f 3d f2 99 4d 3e 32 92 90 bd
       0.028782964 0.06994682 0.20078257 -0.070591345
000290 53 36 e8 bc b0 88 56 3e 0c 41 56 3e 3c 73 fa bd
       -0.028346216 0.2095058 0.20923251 -0.122290105
0002a0 1a 74 98 ba 87 8c fb bd d8 70 a9 3c cb f4 28 be
       -0.0011631281 -0.12282663 0.02068369 -0.16499631
0002b0 81 fe a3 3d fb a9 67 bd fd c6 1b be 5d 01 02 3e
       0.08007527 -0.05655859 -0.15212627 0.12695833
0002c0 5d af 0d bd 55 9a 30 be 4c aa 61 be 9a 0c 1e 3d
       -0.034591068 -0.17246373 -0.2203762 0.038586237
0002d0 1e bb cc bd fe b9 7c 3e 70 95 1c 3e b9 82 d2 3d
       -0.09996627 0.24680325 0.15291381 0.102788396
0002e0 a2 ed 6f 3e bb 17 a9 3d dc a0 2a bd f9 66 5d 3b
       0.23430493 0.08256479 -0.041657314 0.00337833
0002f0 59 98 af 3c b9 37 13 bd 6a 6e 76 3d 1b 18 96 bc
       0.02143495 -0.035941813 0.060163893 -0.018322041
000300 bd 79 dc bd 80 2b 60 be 53 6c 3b be eb e6 e9 3d
       -0.10765407 -0.21891594 -0.18303041 0.11420997
000310 b4 5e 44 bd df f4 2d 3e 2b ca 1a 3e 40 b6 cb 3d
       -0.04794188 0.16987942 0.15116183 0.09946871
000320 84 55 58 be 5c f9 e7 3d 14 ac 72 bd cb bf 3f be
       -0.21126372 0.113268584 -0.059246138 -0.18725507
000330 2d e9 34 bd ab 2b 68 3d e2 87 e3 bd 19 95 83 3b
       -0.044167686 0.05668227 -0.11109902 0.0040155766
000340 37 a9 1f 3e 1f 64 e1 3d 74 a6 26 3d ed db 79 3d
       0.15591894 0.11005425 0.040686086 0.061000753
000350 1c 2c 99 bd d8 e0 07 bc c9 5f fc bd 05 db 22 3d
       -0.07479116 -0.008293353 -0.12322957 0.039759655
000360 64 a9 27 be 8b 22 08 3d 9a e4 bc bd d3 e2 ef 3d
       -0.16373211 0.033236068 -0.0922329 0.11713185
000370 37 6b 63 3e d8 52 a8 3d 89 05 20 be 73 8e 6b 3c
       0.22208868 0.08218926 -0.15627111 0.014377224
000380 29 ef f5 3c 98 1e 9d bc e5 7b 36 3e 2d d9 82 3e
       0.030021267 -0.019179627 0.178207 0.25556317
000390 76 37 3f be 74 29 88 3c 3e cc 3d bd 9e 86 d7 3c
       -0.186735 0.016621329 -0.04633736 0.026309308
0003a0 be 4d 5a be 8a d1 e1 3d c3 7e de bd 6a 42 5d 3d
       -0.21318719 0.110262945 -0.10864022 0.054018416
0003b0 46 d6 7e 3c 76 14 f4 bc 8c f9 08 be 85 ee 0c 3e
       0.015554016 -0.029794913 -0.13376445 0.13762863
0003c0 a3 37 7c 3e f9 37 72 3c 31 58 44 be a6 5a 22 3e
       0.24630599 0.014783853 -0.19174267 0.15854892
0003d0 a7 92 02 3e f0 a8 38 3e 86 5c 87 bd 25 de 33 3a
       0.12751256 0.18033195 -0.06609444 0.000686141
0003e0 51 d0 dc bc 4b 9e 37 be 03 ea f2 3c f1 a6 be 3d
       -0.026954802 -0.17931478 0.029652601 0.09309185
0003f0 11 75 72 bd fe c7 0e bd 3d 9c fb 3d 31 86 89 3d
       -0.059193674 -0.034858696 0.122856595 0.06715048

i2im_conv1.bias f4 [64]
000000 f1 f2 62 bc 57 0c f4 be 51 91 93 be ad a5 f7 bd
       -0.013851867 -0.47665665 -0.28821805 -0.12092147
000010 de 39 47 3e 7f fb 68 3e b4 77 e0 bd bd 0f 9e bd
       0.19455668 0.22752188 -0.109603316 -0.077178456
000020 f2 f7 a6 3e 11 55 42 3f fc d7 ee bd 8f ba 28 3e
       0.32611042 0.7591105 -0.116622895 0.16477416
000030 a0 41 a1 3e df ba b2 3e fa 37 64 3e 5c a4 ae be
       0.3149538 0.34908196 0.22286978 -0.3410977
000040 c0 db 3b 3e c4 db 07 3e f3 bd cd be 35 84 43 3e
       0.18345547 0.13267428 -0.40183982 0.19093402
000050 ed 47 4a 3d 8c c6 88 bd df 61 b0 3e f3 04 13 3f
       0.049385 -0.06678495 0.3444967 0.57429427
000060 5c ad 07 3f 43 c4 a2 ba 06 aa 20 be 0f e5 62 be
       0.529989 -0.001241811 -0.15689859 -0.22157691
000070 cf 0d 01 3e 86 45 5f bc 5b 74 a7 3d 45 f2 a3 3d
       0.12602924 -0.0136274155 0.0817649 0.080051936
000080 fe 49 2e 3e 90 bd 12 be 53 f0 33 3e 09 0a 42 3d
       0.17020413 -0.14330125 0.17572145 0.04737285
000090 6f 2a e6 3d 84 bc 05 3f 9d 55 05 be 40 ef b5 be
       0.11238562 0.52240777 -0.1302094 -0.35534096
0000a0 93 89 94 3d 90 c8 8f 3e 82 88 d9 3d ec 16 f5 3c
       0.07252803 0.28082705 0.1062174 0.029918157
0000b0 2d 0c 06 bf dc 3a 0e 3e bd 23 35 3d 83 cf c4 3d
       -0.5236233 0.1388964 0.044223536 0.09609892
0000c0 8b 43 a7 3d ff 5c e6 3e dc 03 04 3f 6d a4 67 be
       0.0816718 0.44992825 0.5156839 -0.22621317
0000d0 69 b6 50 bd ab ce f0 3d 5a 51 ff be a7 ca b3 be
       -0.05095521 0.11758169 -0.49866754 -0.3511555
0000e0 9a 05 1b 3e ba 5a e2 3d 5f e5 60 be eb 9f 79 be
       0.15138856 0.11052461 -0.21962498 -0.2437741
0000f0 be 52 3a 3d ae 94 0b be 7f 13 46 3f 42 d9 ff be
       0.045489065 -0.13630936 0.773735 -0.49970442

i2im_conv2.weight f4 [64, 64, 3, 3]
000000 33 61 3e bb dd e7 f7 bc 81 e3 9b bc cb 22 bd 3c
       -0.0029049634 -0.030261928 -0.01902938 0.02308788
000010 10 d5 81 3c af 91 ac 3c 0c 99 ac 3b b9 55 0c bd
       0.015848666 0.021065561 0.005267268 -0.03426144
000020 e1 10 b5 3a 24 0c 12 bd 69 26 e1 bc 78 f3 94 3b
       0.0013814234 -0.03565611 -0.027484136 0.0045456253
000030 22 9d c5 bd 69 3f 0d 3c 54 e4 73 3c eb 56 d2 bc
       -0.09649111 0.008621075 0.014885981 -0.025676211
000040 91 9f 60 bd b8 5c 6a bc 8f 61 3d 3a 0c 69 ab 3d
       -0.054839674 -0.014304332 0.0007224315 0.083696455
000050 e9 0b 13 3e 02 37 6e 3d d6 a8 7d 3d 79 b9 b9 3d
       0.14360012 0.05815793 0.061928593 0.09068579
000060 9d 6d 91 3d 77 96 62 3d cf da f8 3d e6 ea b0 3d
       0.07100985 0.055319276 0.121511094 0.08638553
000070 3c e7 7a 3d eb 69 46 bd d4 20 e3 3c f3 e6 2b 3d
       0.06125568 -0.048440855 0.027725615 0.041968297
000080 4e b7 8c 3d 7f 2c 12 bd 9e 3e 80 bd 62 73 a7 bc
       0.068709 -0.035686966 -0.06261943 -0.020440761
000090 9c 0d 9d bd 8d bb 27 bd fd 9e 92 bd c5 47 ae bd
       -0.076686114 -0.040950347 -0.07159231 -0.08509783
0000a0 cb 52 c6 bd 81 f6 8d bd 0e 28 84 bd 2d a8 9a bd
       -0.0968376 -0.069317825 -0.06452952 -0.07551608
0000b0 77 12 13 be 48 2f 67 bd 9d 72 c3 bd b4 06 dd bd
       -0.14362513 -0.056441575 -0.09543345 -0.10792294
0000c0 2c 69 ea 3a df 78 25 3c 03 a3 2e ba 80 63 95 bd
       0.0017884127 0.010099619 -0.0006661864 -0.07294369
0000d0 fa 91 a0 bd 50 b0 71 bd fe 51 0a bd a8 9f a8 3c
       -0.07840343 -0.059006035 -0.0337696 0.020583943
0000e0 bc 97 49 3d 10 e7 b8 bc b7 42 f9 3b a9 f2 99 3c
       0.04921697 -0.022571117 0.00760683 0.018792467
0000f0 5b 68 67 bd 4d 66 38 3c d0 8c 1a 3d 22 d0 a7 3c
       -0.056496006 0.011254859 0.037731946 0.020484988
000100 0c 99 24 3c a3 23 7f 3c 49 4c 03 3d 4a 08 f8 bc
       0.010046255 0.015572461 0.032055173 -0.03027739
000110 1b cf 61 bd 44 0a bd bd 93 e3 ff bd b9 b3 66 bc
       -0.05512915 -0.09230474 -0.12494578 -0.014080935
000120 4d 28 47 3d 45 a3 2f bc 9c 6c bf bc 94 f4 e9 bb
       0.04862242 -0.010720079 -0.023367219 -0.0071397517
000130 52 43 73 bc 86 1b 2a 3b b1 b5 5d bd e7 55 3c bd
       -0.014847593 0.0025956347 -0.054128353 -0.04598036
000140 d4 48 af 3c 23 7f 87 3d d3 68 6f 3c 01 b3 80 3d
       0.021397032 0.06616046 0.014612394 0.06284142
000150 a0 2a 10 3e 8d 0d 08 3d 7f 73 8e 3c 3b 9e 55 3d
       0.1407876 0.033216048 0.017389057 0.052152853
000160 b5 01 0d 3e f3 7c 92 3d e9 19 db 3d f6 1d d0 3c
       0.13770182 0.071527384 0.10698301 0.025404911
000170 bc 40 b0 3d 1e 7b ae 3b 6d 98 a6 bc 41 cb 07 3d
       0.08606097 0.0053247353 -0.020336354 0.033152822
000180 f4 ba 3e 3d e3 bb df 3d 29 35 b4 3d a1 b8 51 3c
       0.04656501 0.109245084 0.08799202 0.012800367
000190 cb 41 22 bc eb 5a ba bb 79 a8 9f bc 94 3c 26 bc
       -0.009903382 -0.005687108 -0.019489514 -0.010146279
0001a0 29 cc 1f bc 2c c7 8e bd 09 4a ab bd 64 99 72 bc
       -0.009753265 -0.06971583 -0.083637305 -0.014807079
0001b0 64 b0 1b bc 6e fe c3 bc d2 61 03 3d fc 4f f0 3c
       -0.009502504 -0.023925032 0.03207571 0.029335015
0001c0 e2 62 08 3d 12 95 d7 bc 81 e4 9b 3c 89 11 b1 3d
       0.033297427 -0.0263162 0.019029858 0.08645923
0001d0 b5 af 8e 3d e4 24 15 be ae 57 f4 bd 7a b5 8f bd
       0.06967107 -0.14564854 -0.11930786 -0.07017036
0001e0 3a 53 91 bd 63 06 05 be ee 2f 8b bd ee 63 02 be
       -0.07095952 -0.12990718 -0.06796251 -0.12733433
0001f0 71 9a 32 be ec ad bd bd 16 39 51 3d 51 45 b9 3c
       -0.17441727 -0.092616886 0.051079832 0.02261606
000200 38 38 ab 3c b1 ca 13 3c 58 e7 e1 bc 06 97 b5 3b
       0.02090083 0.009020493 -0.027576134 0.005541685
000210 6e cd 68 bd 57 4c 7f bd 2e 7c 3d 3c b2 28 ac bb
       -0.056836538 -0.062328663 0.011565251 -0.0052538747
000220 ec 18 33 3d 48 97 1f 3d 7c 0c d5 3d 21 d1 84 3d
       0.04372494 0.038962632 0.10402772 0.06485201
000230 7d da 95 bd 42 ad 56 bc c1 14 9e 3c e6 69 48 38
       -0.07317064 -0.013102831 0.019297006 4.778234e-05
000240 fd f7 6c bb 39 05 5b 3a d8 8f fc 3b d5 9a c2 3c
       -0.0036158555 0.0008354965 0.007707577 0.02375547
000250 b1 d2 3e 3d 8e 72 25 3d 26 03 1e 3d f7 78 22 bd
       0.04658765 0.04039245 0.03857722 -0.039666142
000260 2a 55 b2 bd 04 e5 74 bd 30 ba 49 bd 09 b1 bf bd
       -0.0870765 -0.05978872 -0.049249828 -0.09359939
000270 45 a8 d1 bc da 46 98 bd 75 9d 57 bc c3 3e 67 bc
       -0.025592932 -0.07435389 -0.013160099 -0.014114085
000280 20 d6 23 3d 26 6e 86 3c 70 7f 23 3d e2 2e b9 3d
       0.039999127 0.016409945 0.039916456 0.09042145
000290 df e5 99 3d 30 ed c1 3d ad f2 57 3d 73 0c 09 3d
       0.075145476 0.09469068 0.052721668 0.033459138
0002a0 88 80 c4 3c d3 be 7b 3c c3 4d 73 3d d6 43 02 3d
       0.02398707 0.01536532 0.05940033 0.031802975
0002b0 33 fb 92 bd 60 9f 85 bd 4d 1c 2c 3d 70 4d 30 bd
       -0.07176819 -0.06524539 0.042019177 -0.0430426
0002c0 c1 15 2a bb ef a7 41 3d c6 7d 0e b8 f6 6e 2d bd
       -0.0025952908 0.047279295 -3.3972574e-05 -0.04234215
0002d0 74 22 28 3d df 98 3c 3d 73 43 aa 3c 34 80 d3 3c
       0.041048482 0.046044227 0.020784115 0.025817968
0002e0 0b e9 fc b9 79 76 07 3c b4 de 87 39 16 52 af bc
       -0.00048238816 0.008267992 0.00025915133 -0.021401446
0002f0 fe da f2 bb 59 65 f9 bd b1 63 8f bd 22 d2 ef bd
       -0.00741136 -0.12177534 -0.070014365 -0.117100015
000300 c5 63 b0 bd 5e b5 9c bd dc 7c 87 bd 7a b6 d7 bd
       -0.086127795 -0.076517805 -0.06615612 -0.105328515
000310 19 72 21 be f6 74 12 be 1a e3 a6 bd 2f 54 dc bd
       -0.15766181 -0.1430243 -0.08148785 -0.10758244
000320 04 26 96 bd 3c f5 ec bd 72 c3 bf bd b8 3d ad bd
       -0.0733147 -0.11570212 -0.0936345 -0.084590375
000330 42 44 5e bd a5 75 c6 bd 20 2c 40 bd ed 2c 89 bd
       -0.054264314 -0.09690408 -0.04691708 -0.06698022
000340 12 15 a1 bd 1a 09 ed ba ac 56 8d bc 3c 25 94 bd
       -0.07865347 -0.0018084378 -0.017253242 -0.072336644
000350 3c f1 70 3b 45 72 53 bd 14 48 7a bd cb 98 a9 bc
       0.003676488 -0.051622648 -0.061103895 -0.02070274
000360 99 c3 fb 3c b4 13 a3 3d ec 86 7d 3d 94 7b 9c 3c
       0.030732917 0.079627424 0.06189625 0.019101895
000370 38 9d d4 3c 34 1f 2c 3d b6 76 76 3d 5c 9e 72 bc
       0.025953874 0.042021945 0.060171805 -0.014808264
000380 1b 06 25 3d 11 17 fa ba aa 84 0d 3d 17 57 94 3d
       0.040289026 -0.0019080361 0.034550346 0.072431736
000390 18 37 09 bd ba 09 01 3c c8 2e c5 3d 51 5f 7b bd
       -0.033499807 0.007875854 0.096280634 -0.061370198
0003a0 79 0d 87 3c 30 d9 31 3d d7 25 3a bd 95 cd a9 bb
       0.016485916 0.043420017 -0.045446243 -0.005181978
0003b0 33 d8 32 bd 55 50 b8 bd 8b c0 8a bd 01 e2 6c bd
       -0.043663215 -0.08999697 -0.06775006 -0.05783272
0003c0 f3 6e 84 bd e0 79 e7 bc 2a 2b 3d bd a9 58 90 bc
       -0.064664744 -0.028256357 -0.046183743 -0.017620401
0003d0 76 4c aa 3b e2 fd 0e bd c7 71 2d bd 74 5f 1a bd
       0.005197103 -0.03491009 -0.042344835 -0.037688687
0003e0 8e 7e 85 bd 22 81 7d 3d 20 32 b5 bc d3 ed 17 3d
       -0.06518279 0.06189073 -0.022118628 0.03709204
0003f0 0a 1b bb 3c f1 53 22 3d e0 a0 ad bc 49 fc be 3c
       0.022840042 0.039630834 -0.021194875 0.023313658

i2im_conv2.bias f4 [64]
000000 3d dc 05 3d 85 0a 82 bc f1 cd 9e bc c4 32 82 bc
       0.03268074 -0.015874157 -0.01938531 -0.015893348
000010 75 7b 21 3d b9 e7 9e bc de 6e 66 bc aa d2 8f 3a
       0.03942438 -0.019397603 -0.014064519 0.0010972817
000020 e0 bc 27 3d 0e 93 13 bd 56 4a 05 3c f1 ba 9a 3c
       0.04095161 -0.036028914 0.008135399 0.018887969
000030 5a 8b a3 bc 9b 01 1a bd 53 97 8e bc fc e2 34 3c
       -0.019963909 -0.037599187 -0.017406141 0.011040445
000040 a0 be fc bc 5a 63 e5 3c ab b3 de bc 10 19 e9 3a
       -0.030852616 0.028001476 -0.027185282 0.0017783958
000050 1f 31 7c 3c a4 36 15 bd 30 07 14 3d 33 ab 9a 3b
       0.015392571 -0.036429062 0.036139667 0.0047201156
000060 ee f8 c4 bb 54 9f 1c bc 39 06 6d 3c 2b 86 f2 3c
       -0.00601112 -0.009559471 0.014466816 0.029604992
000070 72 21 a4 bc 72 44 5f bc 4a a0 9b 3b ff 45 1d 3d
       -0.02003548 -0.0136271585 0.0047493326 0.03839683
000080 f4 86 a4 3b d4 3b 7b bc ca 50 2a bd a4 41 d3 bb
       0.0050209705 -0.015334088 -0.041580953 -0.006447034
000090 c0 cb 07 bb e0 3f 31 bd e6 ab b3 bc 83 3b 99 3c
       -0.002072081 -0.043273807 -0.021932553 0.018705135
0000a0 c3 55 ee bc 41 77 a4 bc 1c 83 f1 bc 2c a8 60 3c
       -0.029093629 -0.020076396 -0.029481463 0.01371197
0000b0 cb 5a 75 bc 25 9d 95 bc 6b 0c ef bc 76 39 82 bc
       -0.01497526 -0.018263409 -0.029180726 -0.01589654
0000c0 9c 1e ad bc 08 b6 f7 3b b2 eb d5 3c ba ac fa ba
       -0.02113276 0.0075595416 0.026113365 -0.0019124963
0000d0 c8 a6 1c bd d6 34 b7 3c 0f a6 f1 3c 72 f0 16 bd
       -0.038244992 0.022364061 0.029498128 -0.0368504
0000e0 89 be 20 bd 1d f9 3d 3b 1d 31 16 bd 87 c9 11 bd
       -0.03924421 0.0028987594 -0.03666793 -0.035592582
0000f0 6c 80 3f bc 88 c2 22 3d c8 44 e4 3c 41 85 ee 3b
       -0.011688333 0.0397363 0.027864829 0.0072790687

i2im_conv3.weight f4 [64, 64, 3, 3]
000000 f7 ff ec 3c 45 87 66 3d c0 2d 3a 3d 95 59 44 3d
       0.028930647 0.056281347 0.045453787 0.047936995
000010 ab c3 9c 3d f2 e9 27 3d dd 6e 12 3d 8d 27 42 3d
       0.07654508 0.040994592 0.03575026 0.047401
000020 3a 3d 3c bb fc ee ab 3c 4a 00 09 3d bb 65 7b 3c
       -0.0028723017 0.02098798 0.03344754 0.015344079
000030 dc 63 30 3d 08 aa 93 bc 93 de 17 3e ad a0 ed 3c
       0.043063983 -0.018025413 0.14830999 0.02900728
000040 c5 5f e2 3d d2 05 00 3b 07 da 7b bd 6e 7b e3 bd
       0.11053423 0.001953472 -0.061487224 -0.11107527
000050 66 f1 86 bc e1 02 74 bd 8d 5b 45 be 92 6a 85 3d
       -0.01647253 -0.059573058 -0.19273205 0.06514467
000060 00 cd 58 bd db 5a 0f be 79 39 8b bd e6 c9 e9 bb
       -0.05292988 -0.13999502 -0.067980714 -0.007134664
000070 cc be e4 3c e4 c2 45 bd 29 5a 57 bc 01 56 75 bd
       0.02792301 -0.048281565 -0.013144054 -0.059896473
000080 b5 47 a1 bd f5 d3 7b bc 98 8f 26 3d 93 c3 c3 bd
       -0.07875005 -0.015370359 0.040664285 -0.09558787
000090 49 29 84 3b c3 29 00 bd e8 91 a8 3d 00 7b 7d bc
       0.004033242 -0.031289827 0.082309544 -0.01547122
0000a0 75 b2 bf bd 40 d9 f8 3d 58 52 e7 3b fa fa 86 bd
       -0.0936021 0.12150812 0.0070593767 -0.06590839
0000b0 1b f9 f6 3d 52 8e e0 3c c0 b9 da 3b f1 f9 e3 3c
       0.12059232 0.027411614 0.006674975 0.027829142
0000c0 61 41 a8 bd c7 4e 9c 3c fe 39 27 3d 58 db 30 bb
       -0.08215595 0.019080533 0.04082679 -0.0026986208
0000d0 77 ad 5d 3d 3d 7e 7d 3d f6 04 9d 3d 32 09 56 3d
       0.054120507 0.06188797 0.07666962 0.052254863
0000e0 e6 2a 6c 3d 13 2f 81 bc b7 d0 2e 3e e2 5c 92 bc
       0.0576581 -0.015769517 0.17071806 -0.017866556
0000f0 6d c9 d4 3d 96 cd 36 bb b1 89 53 3d d2 18 c6 bd
       0.103899814 -0.0027893535 0.051644985 -0.09672703
000100 e2 96 cd bc b7 39 3e 3c 3a 87 5c 3c e4 23 3f 3d
       -0.02509636 0.01161044 0.013459975 0.046665087
000110 54 2d 23 be 3c 7d 01 3d 84 38 9c bd cb 37 f7 bd
       -0.1593526 0.031613573 -0.07627967 -0.120711885
000120 e9 c6 c6 3c b1 79 e9 bc d1 d3 3c bc e4 3d 4e 3c
       0.02426477 -0.02850041 -0.01152511 0.012587998
000130 c3 99 81 bd 98 50 17 bd a2 5c 55 3c b9 36 f6 39
       -0.06328156 -0.036942095 0.013022574 0.00046961548
000140 5f 6b a2 bc 98 52 a8 3c 01 3e d4 bc ca 90 95 3c
       -0.01982659 0.020547196 -0.025908472 0.018257517
000150 03 03 cf 3c 8f 6a d0 3c f3 06 86 3b 63 3a 51 3d
       0.02526999 0.025441436 0.004090184 0.051081073
000160 c4 c3 32 3c 21 f3 ea bc 3a 99 02 3d 58 fe 8e bb
       0.010910932 -0.028680386 0.03188441 -0.004363816
000170 37 82 01 bc 54 6c 19 3d b5 73 b7 bc 7a 5d b5 3c
       -0.007904581 0.037456825 -0.02239404 0.0221393
000180 1e 17 53 3b e6 95 4c 3d 50 ac 83 bc c2 e3 0d bc
       0.0032209824 0.04994764 -0.016073376 -0.008660259
000190 79 db 14 bd 52 ef da bc f4 34 3c 3d 9b 09 1c be
       -0.036342118 -0.026725445 0.045948938 -0.15238039
0001a0 2a 38 09 3d 5a 29 00 3c 73 a3 24 bc 70 b6 25 3d
       0.033500828 0.007822359 -0.010048735 0.04045719
0001b0 19 b1 66 3b 0d 60 8b bc cd 36 31 bd 2a e1 31 bc
       0.0035200773 -0.017013574 -0.043265153 -0.010856906
0001c0 7b fd 79 3d cd 22 1e bd 5b 88 63 3c d5 79 65 bd
       0.061032753 -0.038607407 0.01388749 -0.05602439
0001d0 d9 d8 15 bd 0f aa c1 bb 00 bf 80 3d 5a dd 9f 3c
       -0.036583755 -0.005910165 0.0628643 0.019514728
0001e0 64 11 a9 bd 72 ad 39 3d ab 7a 6a bd d5 9e f6 3c
       -0.0825527 0.045331426 -0.05724589 0.030105034
0001f0 96 b0 0c 3d 8a 1d 7e 3d 69 f7 40 bc 38 90 95 3d
       0.034348093 0.06203989 -0.011777737 0.07302898
000200 9c 23 7b bd 05 9c af bc 61 5c 31 bd 47 ec 4d 3a
       -0.061313257 -0.0214367 -0.04330099 0.00078553375
000210 1f f8 86 bc 9f 3e 2d 3d 68 4b 6f bd 19 e6 a2 bc
       -0.016475735 0.04229605 -0.058421522 -0.01988511
000220 32 4e f9 3b 4d ed a6 3b aa 75 c8 3c 51 e8 09 bd
       0.0076081986 0.0050942064 0.02447017 -0.03366882
000230 e1 9c d4 3d ae 94 27 3c 73 92 eb 3d 15 32 16 3d
       0.10381485 0.010228319 0.11502542 0.036668856
000240 ff 48 8e bd ed ec 69 bd df f2 27 bd a1 9f ce bc
       -0.06947517 -0.057110716 -0.041003104 -0.025222601
000250 86 64 11 bd 5e 6c 04 bd 90 b0 0a 3d f4 44 77 3d
       -0.035496257 -0.03232991 0.03385979 0.060368493
000260 56 3f 06 bd f4 a3 bb 3c f4 64 f9 bc 1e 52 7c bd
       -0.032775246 0.022905327 -0.030443646 -0.06160175
000270 03 12 3a bd 31 8a 23 3a 8a 96 04 3d cb c0 35 bb
       -0.045427334 0.00062385487 0.032370128 -0.0027733322
000280 bb a3 68 bd 1d 6d fa bd 59 a4 88 3d b3 48 80 bc
       -0.05679677 -0.12227843 0.06671972 -0.015659666
000290 9e ec e7 3c 43 bf 7f 3c 74 e3 40 3d 9b 6e 40 bc
       0.02831107 0.015609565 0.047091916 -0.01174512
0002a0 39 a5 61 3d 9b dc 9c 3c 85 7b 12 bd b1 76 ad 3c
       0.05508921 0.019148162 -0.03576233 0.02117476
0002b0 c2 e3 9e 3d 7b 47 2f bd d0 66 ac 3d 1e 22 10 bc
       0.07758285 -0.04279278 0.084180474 -0.008797197
0002c0 68 eb 3e bd 60 59 18 bd 79 7f 31 3d bd e2 00 bd
       -0.04661122 -0.03719461 0.043334458 -0.031466234
0002d0 52 ce 1e bd 5c 06 f7 bc 04 80 9e bd 36 c7 5f 3a
       -0.03877098 -0.0301544 -0.07739261 0.00085364596
0002e0 81 41 19 3c 8f d1 19 3e 03 1f 6c 3c 86 53 94 3d
       0.009353996 0.15021347 0.014411691 0.07242493
0002f0 98 92 64 3d 7b 85 9c 3c c8 02 14 bb 6e fa f6 3c
       0.055803865 0.019106617 -0.0022584666 0.030148711
000300 a7 fe a9 3d 65 6c 61 3c 4a 55 6b 3c b2 31 6b 3d
       0.08300524 0.013758753 0.014363596 0.05742044
000310 db 0a 29 3d e1 dd 17 3d 2b 56 d5 bb 10 af 8f bc
       0.04127012 0.037076835 -0.006510516 -0.017539531
000320 e5 8d d1 3c b0 08 f7 3d 38 57 cd 3d e3 ab e2 3a
       0.025580356 0.12062204 0.10026401 0.0017293658
000330 9e 74 d9 3d e1 bf 8e bb 79 47 d1 3d 96 57 03 3d
       0.10617946 -0.00435637 0.102187105 0.03206595
000340 22 46 3e 3c 09 91 51 3d d0 da a5 3d ce e0 1b bd
       0.011613401 0.051163707 0.08098376 -0.038056187
000350 1b aa 49 be 6c f5 89 3d 46 0b 24 bd e8 8a c2 bd
       -0.19693796 0.06736264 -0.040049814 -0.094991505
000360 1f 6d a7 bb 52 93 da 3c 31 51 0c 3d c1 8e b3 3c
       -0.005109444 0.026681576 0.034257118 0.021918656
000370 a5 b6 ab 3d 08 2c 59 bb 13 37 50 3d c6 1f 8b bc
       0.08384446 -0.0033137817 0.050833773 -0.016982924
000380 39 12 91 3d f6 b1 26 3d 6a ea 61 3d 5d 2b cf 3d
       0.07083554 0.04069706 0.055155195 0.10115693
000390 ff 20 0d 3d 3b 85 ca 3d 25 92 2d bb 25 1d 49 3d
       0.034455296 0.09888693 -0.0026484814 0.04910006
0003a0 20 bc 69 3d 84 42 eb 3c 8e f6 23 3b 9e 41 d3 3d
       0.057064176 0.02871824 0.0025018784 0.1031525
0003b0 18 cd 2e bd e0 c3 38 3d 8d 2e 86 3c 85 5d 78 3c
       -0.04267606 0.045108676 0.016379619 0.015159016
0003c0 54 20 84 bc 81 4e f3 3c 54 86 6b bc 6b 9d 8e 3d
       -0.016128697 0.02970052 -0.014375288 0.06963619
0003d0 8b 7c 8a bb c2 91 6c bb c4 4f 67 bb 24 48 8a 3d
       -0.0042262725 -0.003609762 -0.0035295347 0.06752041
0003e0 22 19 65 bc 4f ef 1f 3d e3 b4 14 3d d5 c9 4b bd
       -0.013983043 0.03904658 0.03630532 -0.04975303
0003f0 4c f2 f5 3b 3e a4 71 bd ab d9 20 3d f9 63 1d 3c
       0.0075056907 -0.058994524 0.039270084 0.009606355

i2im_conv3.bias f4 [64]
000000 a1 e0 cd bc c3 9a 6e 3c 9c a1 f2 3c 1a 23 bb 3b
       -0.025131525 0.014563265 0.029618077 0.0057109715
000010 57 7f 17 3d 07 95 85 3c 23 78 9e bc 57 27 28 bb
       0.036986675 0.016306413 -0.019344395 -0.0025658214
000020 a7 6c c2 bc b6 52 c6 3c 4e 0f c3 bc e5 d2 9b ba
       -0.02373345 0.024209362 -0.023811009 -0.0011888413
000030 ce e5 44 3b 30 3a ed bc cb de 41 bb 6d 2d f6 bc
       0.00300442 -0.02895841 -0.0029582258 -0.030050958
000040 e6 51 1c bb 24 19 03 bd d1 07 27 bd 8d 52 fc bc
       -0.0023852526 -0.032006398 -0.04077894 -0.030801082
000050 40 5b 26 3c 5d 0a 6c 3c 1d ac 14 3d 67 a3 3c bc
       0.010153592 0.014406768 0.036296953 -0.0115135675
000060 a4 fd 72 3c dc bd 52 ba fc 11 47 bc 88 69 2a 3d
       0.01483098 -0.00080391555 -0.012150284 0.04160455
000070 70 2c 74 3c 14 d8 87 bc 74 19 1c 3d 18 30 09 bd
       0.014903173 -0.016582526 0.03811021 -0.03349313
000080 c2 5f 20 bd 76 25 fe bc a4 a4 f7 bc ba b7 bb bb
       -0.03915382 -0.031023722 -0.030229874 -0.005728689
000090 a8 4e d0 3a 5b 41 09 3d a3 ab 8e 3c de ef 12 3c
       0.0015892582 0.033509593 0.017415827 0.008968322
0000a0 c1 2a 89 bc fe 9c f3 bc 23 ee 0e 3d dc 39 f8 3c
       -0.01674402 -0.029737946 0.034895074 0.030301027
0000b0 51 a0 df bc 66 b9 e4 bc 70 f2 d1 3b 6f 02 9e bc
       -0.027298125 -0.027920436 0.0064070746 -0.01928827
0000c0 8a c4 13 3d f5 80 09 bd de a9 86 bb 7d df 11 bc
       0.036076106 -0.03357025 -0.004109605 -0.008903381
0000d0 5d 5f 0e bd 60 db 41 3c 39 1f dd bc 16 11 0d 3d
       -0.034758914 0.011832088 -0.026992427 0.034440123
0000e0 2c e2 d6 3c 9a 1d 42 3c 9c ac 96 37 9c 16 2b 3d
       0.026230894 0.011847878 1.7961771e-05 0.04176961
0000f0 9d c5 90 bc a7 98 dd 3c 52 ac 8f bc 69 30 e9 bc
       -0.017672354 0.02705033 -0.017538223 -0.028465467

i2im_conv4.weight f4 [64, 64, 3, 3]
000000 12 c8 a4 bc 65 46 27 bc ff 0a 33 bd 84 ea f4 3a
       -0.020114932 -0.010209654 -0.04371166 0.0018685614
000010 2e 79 f0 bc 75 50 2a bd f2 3b 45 bd 63 b6 24 bd
       -0.029354658 -0.041580636 -0.04815287 -0.040213
000020 cf 6e c6 bb 25 78 75 bc 4f 98 13 3d 6e 17 a9 3d
       -0.00605569 -0.014982258 0.036033925 0.08256422
000030 f7 77 5e 3d 35 91 b5 3c dd 47 88 3d 98 5d 70 bc
       0.054313626 0.022163967 0.06654332 -0.014670752
000040 b8 2d 55 3c c5 b2 bb 3c 44 1b 7f bd 25 ae 3b bd
       0.0130113885 0.022912392 -0.062281862 -0.045820374
000050 74 23 d7 bd 3d 91 09 be da 91 ec bd eb 12 ac bd
       -0.10504809 -0.1343431 -0.115512565 -0.08402046
000060 aa 67 7d bd 8c 27 60 bd 9b dd 98 bd 47 54 fd 3b
       -0.06186644 -0.054725215 -0.07464143 0.007730994
000070 a7 d1 9c bc 86 19 9b 3c ce 17 58 3d 72 22 34 3d
       -0.019142939 0.018933069 0.052757077 0.043978162
000080 73 27 2c 3d fc d4 b1 3c 7c 20 84 3c a7 79 89 bb
       0.04202981 0.021708004 0.016128771 -0.0041954103
000090 4f 85 2b 3b a3 00 25 bd cf 29 37 bc f2 78 fc bc
       0.0026171987 -0.04028381 -0.011179402 -0.03081939
0000a0 2d 74 60 bd cf ad 1e bd c2 1c 16 bd fe d9 97 bc
       -0.054798294 -0.038739976 -0.03664852 -0.018536564
0000b0 52 42 80 bd b4 73 9e bd 61 e1 27 bd a7 c6 9e bd
       -0.062626496 -0.07736912 -0.040986422 -0.07752734
0000c0 4d 29 a2 b8 2b b4 99 3c 41 92 d7 bc 8e 7c 91 bb
       -7.732455e-05 0.018762669 -0.026314856 -0.004439897
0000d0 f7 f6 04 bb 53 ca 13 bd 20 ee 16 3e 5b 3d 15 3e
       -0.0020288804 -0.036081623 0.14739275 0.14574187
0000e0 d1 28 e6 3d c7 34 88 3d 2a e9 cb 3d d5 f1 11 3d
       0.11238254 0.066506915 0.09956582 0.03563102
0000f0 82 da b3 3d de a3 c1 3d b0 24 1a 3d 03 5b 47 bd
       0.087819114 0.09455083 0.037632644 -0.04867078
000100 fe e9 b6 3c 46 59 48 bd 99 d6 2b bd 45 a5 f0 bc
       0.022328373 -0.048913263 -0.041952703 -0.029375682
000110 76 3b 2d 3d d6 e5 09 bd 72 cd 4e bd b5 7b 21 3b
       0.042293034 -0.033666454 -0.050488897 0.0024640386
000120 43 53 b0 bd bb 7f a1 bd 58 53 3f bd 57 2b ab bd
       -0.08609631 -0.07885691 -0.046710342 -0.08357876
000130 e6 d2 d7 bc 27 06 30 bc a8 7b 03 3d ec 37 98 3d
       -0.026345681 -0.010743654 0.03210035 0.07432541
000140 cb 77 a7 ba bb 29 b8 bc 0c 12 1a 3c ab 79 a2 3c
       -0.001277679 -0.022480836 0.009403717 0.019833406
000150 72 d2 2b ba c2 12 3f 3d 1a e1 5f bc 6b 13 78 bc
       -0.0006554491 0.04664875 -0.013664508 -0.015141348
000160 7b 3a b0 3c 18 89 1a bd ee 8a d2 3b d0 53 97 bc
       0.02151226 -0.0377284 0.006425253 -0.018472582
000170 ee 82 28 bd a8 4c 61 bd 03 cb e2 3c 17 b5 3f bd
       -0.04114049 -0.055004746 0.027684694 -0.04680356
000180 e7 bf 98 bd c6 91 e7 bc b0 30 97 bd ed cc 9d bb
       -0.074584775 -0.028267752 -0.07382333 -0.004815689
000190 81 be 7c bc 20 b7 b7 bc d0 e0 3c bc 71 5d 6c bc
       -0.015426279 -0.022426188 -0.011528209 -0.014426575
0001a0 ae 44 a7 bc c4 ec ec 3c 79 12 4d 3d a5 17 25 3c
       -0.020418491 0.028921492 0.050066445 0.010076438
0001b0 93 aa 8b 3c cd df 0d bc 61 79 e6 3c 25 23 09 3c
       0.01704911 -0.008659315 0.02813405 0.0083701955
0001c0 9d 9a c8 bc 36 04 12 3d f6 15 01 3d 29 c6 04 3d
       -0.024487788 0.035648547 0.031515084 0.032415543
0001d0 ab 89 73 bc 35 32 31 3d 19 99 f0 bc af 5c fc 3c
       -0.014864366 0.04326077 -0.029369878 0.030805914
0001e0 95 4c 32 3d 1a 63 cc 3b 7c dd a3 bc 10 24 53 3d
       0.043530066 0.0062373998 -0.020003073 0.051548064
0001f0 80 77 24 3d 94 96 03 3d 96 09 b8 bc 0f 4a 2e bd
       0.040153027 0.032126024 -0.022465508 -0.042551097
000200 da 87 0a bd ae 81 c7 bb 43 ce 8d bc e4 6f 6a bd
       -0.033820964 -0.006088457 -0.017310267 -0.057235613
000210 06 24 42 3d a9 eb 45 bc 83 ff cd bc 03 e6 d2 bc
       0.047397636 -0.012080112 -0.025146252 -0.025744444
000220 03 79 a5 3c a0 99 a9 bd c5 e7 05 3d 35 bf d9 3d
       0.020199304 -0.08281255 0.032691736 0.10632173
000230 5d ad b2 3b f0 8b 13 bd 1d 9a 8d 3b 47 37 b4 bd
       0.0054527954 -0.036022127 0.0043213503 -0.08799606
000240 d0 2b b7 3d 95 e1 4e 3d 33 63 99 3d 0f 63 bb 3d
       0.089439034 0.0505081 0.07489624 0.09149753
000250 61 a4 81 3d 4e 78 82 3d 6b 14 2b 3d b5 08 42 3d
       0.06330181 0.063706025 0.04176752 0.047371585
000260 da 12 0b 3d 88 99 19 3d 7d 95 2e 3c 44 8a 12 3c
       0.033953525 0.037499934 0.010655758 0.008944098
000270 6d 2b c5 3c 27 c5 f9 3c f2 25 9c bb 98 29 ec bc
       0.024068559 0.030489517 -0.0047652656 -0.028828427
000280 04 22 23 3b 3c 9e 7d bc 59 22 5d bc 02 a1 51 bd
       0.00248921 -0.015479621 -0.013496959 -0.05117894
000290 db 59 1c bd a0 72 7b bd 30 66 b3 bd 68 74 0c bd
       -0.03817163 -0.06138861 -0.08759725 -0.0342907
0002a0 10 4c b8 bb ee 30 46 3c 04 b0 71 3b 8b 6b 4e 3b
       -0.0056243017 0.012096627 0.0036878595 0.0031497206
0002b0 c0 64 ed 3c 4a b0 a4 3a 71 a3 92 3c 8d 04 01 bd
       0.028978705 0.0012564745 0.0179002 -0.03149848
0002c0 ad 54 14 bd 46 bb 02 bd 52 c9 8a bc 2e 76 17 bc
       -0.036213566 -0.03191688 -0.0169417 -0.009244485
0002d0 f7 62 70 3d ac f6 09 3e 96 7b 09 3d 15 3f 07 3e
       0.05868813 0.13473004 0.033565126 0.13207658
0002e0 06 fd 18 3e c6 60 d6 3d 5d 0a 99 3d 02 d0 93 3d
       0.14940271 0.10467677 0.0747268 0.07217409
0002f0 e4 32 21 3d cd 87 8d bc 41 7a ba bc fc 85 2f bc
       0.039355174 -0.017276669 -0.022763373 -0.010713097
000300 40 3c bf 3b 8e 1c d3 bc 03 40 9b 3c ae 13 b1 b9
       0.00583604 -0.025770452 0.018951422 -0.00033774733
000310 68 c6 55 bd 47 91 c3 3b 22 8b ee bc 58 9b 0c 3d
       -0.052191168 0.005968246 -0.029119078 0.034327835
000320 8a 84 40 bd 16 85 29 bc 40 5e 55 3d 10 bf bd 3c
       -0.0470014 -0.010346672 0.052091837 0.023162395
000330 30 ac 46 3c 35 b0 24 bc 73 fb e6 3c 11 c7 a5 3c
       0.012126014 -0.010051777 0.028196072 0.020236524
000340 d6 1a 5a 3d 18 cc 87 3c 77 54 42 bc fd d1 81 3d
       0.05324825 0.016576812 -0.011860958 0.0633888
000350 0e c4 b3 bc 5c fb 1f bd c7 35 37 bd 26 91 77 bd
       -0.021944072 -0.039058074 -0.04472902 -0.06044116
000360 09 21 34 3d f0 73 c5 3a 8b d0 12 3b 9e 4f eb 3c
       0.043976817 0.0015064459 0.0022402133 0.028724488
000370 4e 8e 80 3d 6a 29 8c bb fe 44 a9 3d d9 bd 61 3d
       0.062771425 -0.004277398 0.08265112 0.055112693
000380 fd ba a7 3d b0 c9 c7 bd 8d 40 85 3c 91 5a 3a 3d
       0.08189962 -0.09755266 0.016266132 0.045496527
000390 ed 00 0d 3b 9e 45 fd bc 45 e3 5b 3d 32 af 3b bd
       0.0021515444 -0.030916985 0.053683538 -0.045821376
0003a0 61 10 9b bb 9e 50 62 3d cb 2a 22 3d d9 2c f4 3c
       -0.004732177 0.055252664 0.03959159 0.029806541
0003b0 5f b7 c4 bb ba 56 31 bd 17 dc d9 3c 10 41 ef 3b
       -0.006003305 -0.0432956 0.026594205 0.007301457
0003c0 b5 d5 03 3d a5 96 f9 3c e8 b8 3d 3d 41 f3 38 bd
       0.03218623 0.03046734 0.04631892 -0.04515386
0003d0 8a 01 09 bc 3a 59 85 bd 92 9e d4 bc 64 c7 89 bd
       -0.008362183 -0.06511159 -0.025954518 -0.06727484
0003e0 34 0e 97 bc 28 36 c6 bd 5e c0 6e bd ad d8 8a bd
       -0.01843939 -0.09678298 -0.058288924 -0.06779609
0003f0 e0 1e 92 3d 2c df b4 3d f5 29 b7 3d 78 c2 01 3d
       0.07134795 0.08831629 0.089435495 0.0316796

i2im_conv4.bias f4 [64]
000000 a5 a7 d1 bc f2 93 93 bc 88 70 24 bd 01 0f 86 bb
       -0.025592634 -0.018014882 -0.04014638 -0.004091144
000010 ed fb e1 3c 1f 41 4a 3b 31 d9 29 3c 88 3e 1f 3d
       0.027585948 0.003086157 0.010366724 0.038877994
000020 42 15 00 bc 55 03 15 bd b2 c6 88 bb 29 0f 07 3c
       -0.007817568 -0.03638013 -0.004174077 0.008243361
000030 ee db a7 bb 7c 57 f8 bc bf 93 cf bc de e3 0e bc
       -0.005122653 -0.030315153 -0.025339006 -0.00872132
000040 ef cc 98 3c 2d d9 1a bd dc 91 5c bb 6f 5a 11 3c
       0.018652407 -0.03780477 -0.0033656275 0.008871659
000050 2d 0c 93 3b 3b c5 22 3d f4 41 54 3c 51 86 0a 3d
       0.0044875355 0.039738875 0.012955178 0.0338195
000060 3c 6c fe 3b 4c 69 f9 3c 42 29 1f 3d d0 d1 54 3c
       0.0077643674 0.030445717 0.038857706 0.012989476
000070 ae c1 55 3c f1 78 0d bc 7c d3 23 3d c1 f9 4c bc
       0.013046665 -0.008634792 0.03999661 -0.012510718
000080 e8 01 c5 bc bd 15 20 bd dd a6 08 bd 82 36 21 3d
       -0.02404876 -0.03908323 -0.03336226 0.039358623
000090 52 0e 8d bc ce d0 2b ba a2 6f 1f bd 59 2f d6 bc
       -0.017218743 -0.00065542466 -0.03892482 -0.026145624
0000a0 ed f5 02 3c c6 03 26 3d 83 46 95 3c d9 6d 7e bc
       0.007993204 0.040530942 0.0182221 -0.015529119
0000b0 55 b5 ee bc 7d a2 1b bd 63 ec 0d 3d 27 f2 3b 3b
       -0.0291392 -0.037996758 0.034649264 0.002867827
0000c0 12 fb df bb 38 5f 11 3b e7 77 ac 3c b8 f1 1f bd
       -0.00683535 0.0022182 0.021053268 -0.03904888
0000d0 3b 65 02 3d 02 c0 0e 3d 7a 83 a3 3c 0d a1 1f bd
       0.031834822 0.03485108 0.019960154 -0.03897195
0000e0 09 4a cf bc e2 5d 4c bc 4c a0 b3 bc bb c2 ff 3c
       -0.025303857 -0.012473555 -0.021927021 0.031220784
0000f0 2d 69 9c 3b 60 8a 3d bc 11 c9 37 bc 7b 26 3c 3a
       0.00477328 -0.011568636 -0.011217372 0.0007177365

i2im_conv5.weight f4 [64, 64, 3, 3]
000000 dd 12 29 bd 38 be 03 bd c6 91 26 bc 3a 88 37 3d
       -0.041277755 -0.03216383 -0.010166591 0.04480765
000010 87 33 fd 3b 5b 28 0a 3d af fc 5a 3c 16 dc 83 3c
       0.00772709 0.033729892 0.0133659085 0.016096156
000020 af d3 bf bc 4b 0e ac 3c 88 75 88 bc 19 39 1f 3c
       -0.023416368 0.02100291 -0.016657606 0.009718203
000030 24 93 3e 3c 75 bb 98 bd 1d 1e 9a 3c 0b 94 e5 bc
       0.011631761 -0.074576296 0.018813187 -0.028024694
000040 ce b5 a0 bd e3 5d 7c bd 35 3d 2e bd 7d 73 9a 3c
       -0.078471765 -0.061612975 -0.04253884 0.018853897
000050 6f 1c 20 bd 0e dd be 3c 01 79 8a 3c 5a e2 43 bd
       -0.039089616 0.023298766 0.016903402 -0.047823288
000060 9b a3 d0 bb 0f 81 45 3d 15 38 85 3d 26 16 72 bc
       -0.0063671595 0.048218783 0.065048374 -0.014775788
000070 db 4e 84 3c 40 0f 21 bc 7e a5 01 3d 99 a0 40 3d
       0.016150882 -0.009830296 0.031651966 0.047028158
000080 dd 0b 52 3d 01 cd 07 3d 68 27 d4 3b 30 f5 87 bb
       0.051280845 0.03315449 0.006474424 -0.0041491017
000090 6a bf 44 bd 2b 03 c8 bc 88 d2 5c bd 72 25 39 bd
       -0.04803411 -0.024415573 -0.053911716 -0.045201726
0000a0 f3 1b be bd 42 8c d3 bd d2 96 90 bc 7d b3 6d bc
       -0.09282675 -0.103294864 -0.017650042 -0.014508125
0000b0 81 ac 72 bc 34 29 a7 bc f0 e6 32 bd ce fb 2a bd
       -0.014811636 -0.02040539 -0.04367727 -0.041744046
0000c0 82 06 1c bd c3 61 6e 3a f4 c0 1c bd 09 51 93 bb
       -0.038092144 0.0009093547 -0.038269952 -0.004495744
0000d0 3f 25 46 bd e1 91 3f bd 75 d7 1e bb 2e bf df bc
       -0.048375364 -0.04676998 -0.002423731 -0.027312841
0000e0 cf ca 5b bd 18 6a 74 bd 7d 4f ef 3c 2f 60 fd bb
       -0.05366021 -0.05967149 0.029212708 -0.0077324132
0000f0 63 18 b6 bc f8 45 0e bd 42 a4 b8 bc 3c 24 27 bc
       -0.022228425 -0.034734696 -0.022539262 -0.01020151
000100 0d 76 4e bc ab 5f 91 3a 66 f5 a1 bd 80 21 4e bd
       -0.012601388 0.0011091133 -0.07908134 -0.050324917
000110 df ac 5a bc d2 0b 8e 3d db 25 74 3d 69 64 60 bd
       -0.01334688 0.06935848 0.059606414 -0.05478326
000120 90 59 2a 3c 9e 24 8f 3c 51 6e f6 3c 07 cf 06 3c
       0.01039733 0.017473515 0.0300819 0.00822807
000130 0e a3 19 3d f9 2b 13 bb 57 3f a7 bc d5 ca cf 3a
       0.037509017 -0.002245663 -0.020415945 0.0015853295
000140 80 79 df bc c3 8d 2d 3d de 90 3f 3b bd 81 ae bd
       -0.027279615 0.042371523 0.0029230635 -0.08520839
000150 60 67 44 bc 05 b9 62 3d 01 31 ec bc fd cd 6b 3c
       -0.011987537 0.05535223 -0.02883196 0.014392373
000160 88 ae d5 3c 81 1c 99 bd 49 50 ba 3a 6e 90 81 bc
       0.0260842 -0.0747614 0.0014214601 -0.01581594
000170 b2 a8 a1 bc ad a9 9a bc f2 0c 5f 3c 6d af e5 3c
       -0.01973376 -0.018879736 0.013613926 0.028037751
000180 0f 41 46 bc a8 c3 8e bc c9 ce 8d 3d ca c1 d2 bc
       -0.012100472 -0.01742728 0.06924207 -0.025727171
000190 66 27 fe bc 7a d5 7d 3c 18 2f 80 3c 45 07 b8 bc
       -0.031024646 0.015492791 0.015647456 -0.022464404
0001a0 0a 64 57 bd 16 4b 2b bc 10 2b 17 bd 68 6b c1 bd
       -0.05258564 -0.010454914 -0.036906302 -0.09444314
0001b0 11 ad d2 bd 42 7e 3c bd 75 d8 d9 bd 1b 28 49 bc
       -0.10286916 -0.046018846 -0.10636989 -0.012277628
0001c0 08 5b a8 bd f6 c4 cc bd 81 84 06 be f5 20 d3 bd
       -0.08220488 -0.09998505 -0.13136484 -0.103090204
0001d0 fd 70 07 be fe 45 9d 3d af b1 b3 3d 75 11 69 3d
       -0.13226695 0.076793656 0.08774125 0.056901414
0001e0 dc cd 10 3d ba 10 83 3c 7c 36 9f bc 30 fe b4 3d
       0.035352573 0.015999187 -0.01943516 0.08837545
0001f0 f1 87 68 bc b7 b9 a2 bd df 92 56 3d 37 a2 27 3d
       -0.014192567 -0.079455785 0.05238616 0.040926185
000200 7d 9a 61 3c f2 15 bd 3d 94 dd da 3d 31 ec a2 3d
       0.013769743 0.09232701 0.10686794 0.07955206
000210 69 b4 0c 3d e0 7d 88 3d 0a 50 19 3d 46 a7 eb 3b
       0.03435174 0.06664634 0.037429847 0.0071915714
000220 d2 b1 09 3c 28 ea 6b bc 92 67 0d 3d 74 50 1c 3d
       0.008404212 -0.014399089 0.0345226 0.038162664
000230 43 1b 2d 3c b8 6d 29 3c e5 37 0a 3a c5 d5 f3 3c
       0.010565582 0.0103411 0.0005272611 0.02976502
000240 da 84 cb 3d 7e 5c 1e 3d 80 ce af 3d 71 2d 2d bc
       0.09937449 0.038662426 0.085843086 -0.010569916
000250 38 25 a3 bb 10 d1 6b bd 19 62 07 3e bc f5 09 3d
       -0.004978802 -0.057572424 0.13221015 0.033681616
000260 d5 a2 e3 3c ea f7 01 bd 37 aa 95 bd 4c 03 43 bd
       0.027787605 -0.03173057 -0.073078565 -0.047610566
000270 2a 7c ed 3c 5b 99 1a 3d d7 e8 bc 3c 96 18 bf b9
       0.02898987 0.037743907 0.023060245 -0.00036448677
000280 f3 7a 8d bd d3 84 58 3c 4f 16 0b bd 26 8f 7f bc
       -0.06908216 0.0132152615 -0.033956822 -0.015598094
000290 0f 16 04 bd ab 8d 29 bd 4a 96 f5 ba 22 e2 85 bc
       -0.0322476 -0.04139487 -0.0018736806 -0.01634318
0002a0 6b 9c 01 3d 03 5b b0 bb d8 82 31 3b 5d 43 f8 bd
       0.031643312 -0.005381943 0.0027086046 -0.121222235
0002b0 a2 29 57 bd d6 d0 97 bd d7 1b 92 bc 65 b1 d2 bb
       -0.05252994 -0.07412879 -0.01783554 -0.0064298385
0002c0 1a 9f 4d bb f9 fd 59 bb 8d f7 d5 ba 4f d9 83 bc
       -0.003137535 -0.0033262952 -0.0016324386 -0.016094832
0002d0 6e 43 48 3b 27 ec 24 3d cb 05 84 3d ea fc 46 bc
       0.003055777 0.040264275 0.064464174 -0.01214526
0002e0 8a 88 73 bd e7 b5 a1 bd 92 b7 4e 3d 71 5e c9 b9
       -0.059456386 -0.07896023 0.050468035 -0.00038408072
0002f0 da b7 f2 bc 8d 75 b4 3c c7 2b 89 3c 44 c8 fb 3c
       -0.029628683 0.022028709 0.016744507 0.030735143
000300 10 78 b3 3c 6b 08 3c 3d bb b5 16 bd 5a f8 85 bc
       0.021907836 0.045906466 -0.036794405 -0.016353775
000310 0a 71 88 bc 58 ba b9 ba 2d e0 99 3c c7 bf a5 3d
       -0.016655464 -0.0014169915 0.018783653 0.08093219
000320 a5 ca b4 3d f2 66 70 3c 51 e6 98 3d e0 ae 97 3d
       0.08827714 0.014672982 0.07465804 0.07406402
000330 6f 60 78 bc 04 e8 a2 3d f4 05 1b 3d d7 95 cf 3c
       -0.01515971 0.0795441 0.037847474 0.025340004
000340 76 fe da 3c 21 9e 64 bd 85 5b 46 bd 26 bf b2 bd
       0.026732665 -0.055814866 -0.048427124 -0.08727865
000350 7c 07 04 be 04 ef 25 bd 7f 7d 87 bd 7e 8c 2f be
       -0.1289348 -0.040511146 -0.06615733 -0.17143437
000360 85 21 80 3d 5e f7 dd 3c d1 01 b3 3c ff 07 6c 3d
       0.06256393 0.027095493 0.021851452 0.057624813
000370 9f ca 1d 3d b5 21 5a 3d f8 38 91 3d fd 86 ab 3c
       0.038523313 0.0532548 0.07090944 0.02093839
000380 44 17 71 3b 2c 80 be bc ba 92 33 3d cc d9 b0 bb
       0.003678755 -0.023254476 0.0438411 -0.005397057
000390 7a c8 30 3d cb 5d 84 3a c5 31 ea 3c a2 64 a0 3c
       0.04315994 0.0010098753 0.028588185 0.019579235
0003a0 b6 a2 98 bc c8 29 22 bd 46 71 04 3b 43 ea 8f 3b
       -0.018632274 -0.039590627 0.0020209118 0.00439194
0003b0 91 06 33 bd 04 a6 47 3c 4c aa 5b bd 16 72 ce bb
       -0.043707434 0.012185577 -0.053629205 -0.006300221
0003c0 38 95 47 bd 4c c1 a3 bd 1e 68 93 bc 73 59 48 3d
       -0.04872629 -0.07995853 -0.017993983 0.04891343
0003d0 4f 05 99 3c c0 83 5d bb fe 3e da 3d 5a f7 37 3d
       0.01867929 -0.0033800453 0.10656546 0.044913627
0003e0 af e7 61 bc 4f 3b c6 3c 8c 07 1e 3c e6 b4 08 bd
       -0.013788148 0.024198202 0.009645354 -0.033375643
0003f0 05 de 14 3c aa 18 da 3d c7 8f 31 3d 37 12 8d 3d
       0.009086137 0.106492355 0.043350007 0.0688824

i2im_conv5.bias f4 [64]
000000 38 82 47 bc 50 e9 39 3c b2 b9 e5 3c 13 25 8b 3c
       -0.012177043 0.01134713 0.028042648 0.016985452
000010 71 b9 04 3d 27 3a eb 3c e5 bc 30 bc a0 16 8b bb
       0.032403413 0.028714253 -0.0107872235 -0.0042446405
000020 be c1 b1 bc f4 f2 b9 3c 0c c7 0c 3d 65 ff b5 3c
       -0.021698829 0.022698857 0.034369513 0.022216508
000030 1d 91 a8 3c 32 51 e7 3c a9 b5 a2 bc 4d b2 e9 3b
       0.020577008 0.02823696 -0.019862013 0.007131851
000040 50 f1 3f bb 93 a1 16 bd 2d 37 82 3c 46 4b 3a bc
       -0.002928812 -0.036775183 0.01589545 -0.011370486
000050 d5 f1 1d bd da f8 73 bc 86 83 81 bc 7d 6f 18 3d
       -0.038560707 -0.014890874 -0.015809786 0.0372157
000060 4d 43 59 bc 33 c8 16 bc d7 a0 d1 bc 03 f6 46 3c
       -0.013260675 -0.009203005 -0.02558939 0.012143615
000070 f4 83 c0 3c be 74 00 bd 05 d7 18 bd 39 1c 8e bc
       0.02350042 -0.031361334 -0.037314434 -0.017347442
000080 95 07 1d 3c 40 48 b1 3c ab eb 13 bd de 61 39 3c
       0.009584327 0.021640897 -0.036113422 0.011314837
000090 9b a6 01 3d b4 4c 87 3c 76 44 80 bc 39 e1 8b bc
       0.031653028 0.016516067 -0.015657645 -0.017075168
0000a0 8c f0 b7 bc 73 27 0d bd 8d 46 fc 3c f6 4d 13 3d
       -0.022453569 -0.03446145 0.03079536 0.03596302
0000b0 87 bc f0 3a f5 61 87 3c fd 69 1e 3d ab dd f4 3c
       0.0018366732 0.016526202 0.038675297 0.029890856
0000c0 de 80 a9 bc 0c fe e6 bb fa 18 d8 bc 66 c1 bb bb
       -0.020691331 -0.0070493277 -0.026379097 -0.005729842
0000d0 ba 4a fa bc 3e 01 64 3b 78 9d c7 3a 0c 0c b6 bb
       -0.03055321 0.003479078 0.0015229424 -0.0055556353
0000e0 ed c6 a1 3c 7e 6e c3 3c 23 0d 5b bc 94 04 aa bb
       0.019748176 0.023856398 -0.013369831 -0.005188534
0000f0 8a 55 e2 3c e2 87 1e bd f1 56 c6 bc 82 56 77 bb
       0.027628679 -0.038703807 -0.024211379 -0.0037740772
