pre_trained_models/HUWIE_Net_PIM_epoch50.pth (torch, 751692 bytes, 14 tensors)

pim_conv1.weight f4 [64, 3, 3, 3]
0	0xbe1bb47f	-0.15205573
1	0xbd58db85	-0.052943725
2	0xbe304379	-0.17213239
3	0x3e4c143e	0.19929597
4	0x3bbe88af	0.005814634
5	0xbcccc9df	-0.024998603
6	0x3dd6b63a	0.10483976
7	0x3d3c13de	0.045917384
8	0x3df34458	0.1187827
9	0xbce69307	-0.02814628
10	0xbdb89a1b	-0.09013768
11	0xbe0a60c4	-0.13513476
12	0x3da19d29	0.07891304
13	0xbdffcf73	-0.1249074
14	0xbe445646	-0.19173536
15	0xbe04c49e	-0.12965629
16	0x3c6aae69	0.014323809
17	0x3b80cb57	0.00393049
18	0xbe97bdd4	-0.29637015
19	0xbdc55e89	-0.09637172
20	0xbe422940	-0.18961048
21	0xbd96ef8e	-0.0736991
22	0x3c40fba6	0.011778748
23	0x3d5f0dfa	0.05445669
24	0xbe7cd81a	-0.24691811
25	0xbd035a09	-0.032068286
26	0xbdae0ba6	-0.084983155
27	0x3e7614ad	0.24031325
28	0x3e2d1543	0.16902642
29	0x3cb810ca	0.022468943
30	0xbe315e4f	-0.17321132
31	0xbd69087e	-0.056892864
32	0xbd6b35f6	-0.057424508
33	0x3dfeed50	0.124476075
34	0xbdebb291	-0.11508668
35	0xbdf3aa6b	-0.11897739
36	0xbd855a16	-0.06511323
37	0x3dabd304	0.083898574
38	0xbe354f1f	-0.17705964
39	0xbcb91e0d	-0.022597337
40	0xbc07f862	-0.008298965
41	0x3dc7afb8	0.097503126
42	0x3e41e705	0.18935783
43	0x3d8e39c1	0.069446094
44	0xbdf54d07	-0.119775824
45	0xbe2831ce	-0.16425249
46	0xbdf7d3c5	-0.12100939
47	0x3e245290	0.1604712
48	0xbe637f8d	-0.22216626
49	0xbe1ee9da	-0.15518895
50	0xbcf127dd	-0.029437954
51	0x3e77e49e	0.24208304
52	0x3e19a69f	0.15004967
53	0x3e0f2c4e	0.13981745
54	0xbe31932d	-0.173413
55	0xbe140a70	-0.14457107
56	0x3d67b261	0.0565666
57	0x3e489f81	0.19592096
58	0xbd873d62	-0.06603505
59	0x3e0ceabf	0.13761424
60	0x3e33a23d	0.17542358
61	0xbd6b3491	-0.057423178
62	0xbd23eeff	-0.040022846
63	0xbe44fc9d	-0.1923699
64	0xbdecfdb7	-0.1157183
65	0xbe63b02f	-0.22235177
66	0x3e042f00	0.12908554
67	0x3cbf6e4f	0.023368029
68	0xbe0734d3	-0.13203745
69	0x3e7dda01	0.24790193
70	0x3ca21493	0.019785201
71	0x3d56d1c8	0.052446157
72	0x3b47a26c	0.0030461801
73	0x3de03799	0.109481044
74	0x3c4f49b7	0.012651852
75	0x3e075066	0.13214263
76	0xbdd45224	-0.103672296
77	0xbe158667	-0.14602052
78	0x3df9352f	0.12168347
79	0xbc9905d3	-0.018679535
80	0xbe19568a	-0.14974418
81	0x3e04dbbc	0.12974447
82	0xbe0a2d30	-0.134938
83	0x3d8638f9	0.065538354
84	0x3d2f4597	0.042790975
85	0xbd7e77dd	-0.06212603
86	0xbdeab5eb	-0.11460479
87	0x3c2a3295	0.010388036
88	0xbd894227	-0.06702071
89	0x3e1147d4	0.14187557
90	0xbd1684c7	-0.03674772
91	0xbe1ac1cb	-0.15112989
92	0x3e349ea8	0.17638648
93	0xbe5206ac	-0.20510358
94	0x3dc79611	0.0974542
95	0x3c521260	0.012821764
96	0xbe60ec55	-0.21965154
97	0x3cbea18c	0.02327039
98	0x3e20c2e9	0.15699352
99	0x3e6a7a01	0.22898103
100	0x3e2d80f3	0.16943721
101	0x3e2f17c4	0.1709891
102	0xbc2c48d2	-0.010515409
103	0xbdc8cdd6	-0.09804885
104	0xbd9d4ce8	-0.07680684
105	0x3d4a2b50	0.049357712
106	0xbdf7faee	-0.12108408
107	0xbdf36511	-0.11884511
108	0x3ca60583	0.0202663
109	0xbc88d60e	-0.016703632
110	0xbe262d01	-0.16228105
111	0x3cf22006	0.029556286
112	0xbdc75b37	-0.09734195
113	0x3cea6577	0.028612835
114	0xbe1bcd72	-0.1521509
115	0xbad897df	-0.0016524753
116	0x3d0aa0bb	0.03384469
117	0xbdba184e	-0.09086667
118	0x3e6a3dc2	0.22875121
119	0xbcea08e1	-0.028568687
120	0xbcb7d083	-0.022438293
121	0x3e599105	0.21246727
122	0x3a892ebd	0.00104662
123	0xbe42bb51	-0.19016768
124	0x3e748669	0.23879398
125	0xbe27f6ab	-0.1640269
126	0xbe888d6f	-0.26670405
127	0x3cab563a	0.02091514
128	0xbe753253	-0.23944978
129	0x3e0ffd5d	0.14061494
130	0xbc62f224	-0.013851676
131	0xbdfa867e	-0.122326836
132	0xbc2df62d	-0.010617775
133	0xbe09ac26	-0.13444576
134	0xbdd060d7	-0.10174721
135	0x3de1314d	0.109957315
136	0xbe38cd94	-0.18047172
137	0x3e07354a	0.13203922
138	0xbe1dad21	-0.15398075
139	0xbe5ed6e0	-0.21761656
140	0x3e08e4a6	0.13368472
141	0x3d1eddc7	0.038785722
142	0xbc3b0f19	-0.011417174
143	0x3d3724d3	0.044712853
144	0x3cfd56eb	0.030925235
145	0x3b879709	0.004137878
146	0xbd9fe5ec	-0.07807526
147	0xbdafecd5	-0.08590094
148	0xbe89221e	-0.26783842
149	0x3dc50de6	0.096217915
150	0x3e224578	0.15846813
151	0x3e1831a6	0.1486269
152	0x3e3b43db	0.18287604
153	0xbd950a81	-0.07277394
154	0xbb8bfc26	-0.004272002
155	0xbd4a12d6	-0.04933437
156	0xbe564158	-0.20923364
157	0x3dec4e66	0.11538391
158	0x3e2c467e	0.16823766
159	0xbdce7f3b	-0.10082861
160	0x3e3b3b5d	0.18284364
161	0x3c88c548	0.016695634
162	0x3bf3bd4c	0.0074383374
163	0xbdeea5d2	-0.116527215
164	0xbb0db47b	-0.0021622467
165	0xbd01467a	-0.031561352
166	0x3d97fec1	0.07421637
167	0xbdcbf2ea	-0.099584416
168	0xbe7cf174	-0.24701482
169	0xbbb6a8a2	-0.005574302
170	0xbe18a198	-0.14905393
171	0x3df04c85	0.11733345
172	0x3dea5b7e	0.11443232
173	0xbe1a9553	-0.15096025
174	0xbeb504d0	-0.35355234
175	0xbe5bc0fd	-0.21460338
176	0xbe9c8cfd	-0.30576316
177	0xbd954038	-0.072876394
178	0xbd5c22e7	-0.053744223
179	0xbe139e01	-0.14415742
180	0x3e0460ba	0.12927523
181	0x3d98e858	0.07466191
182	0xbca9249d	-0.020647341
183	0xbd34847a	-0.044071652
184	0xbe153da9	-0.14574303
185	0xbe393175	-0.18085273
186	0x3c352bd4	0.011057813
187	0xbdee078b	-0.116225325
188	0x3d923e92	0.071408406
189	0xbde04124	-0.109499246
190	0xbdf0e252	-0.11761917
191	0xbe5b114c	-0.21393317
192	0xbe058e0d	-0.1304247
193	0xbe438bc0	-0.19096279
194	0x3d74fed2	0.059813328
195	0xbde66d46	-0.11251311
196	0x3cfdb5f3	0.03097055
197	0xbd64a9ac	-0.055825874
198	0xbde0577f	-0.109541886
199	0x3d47d5e8	0.04878798
200	0xbe78c623	-0.24294333
201	0x3e0def78	0.13860881
202	0xbd341326	-0.043963574
203	0xbdf899cb	-0.12138709
204	0x3e7b8324	0.24561745
205	0x3e63d8d0	0.22250676
206	0x3ce1c72b	0.027560791
207	0xbd16713a	-0.036729075
208	0xbda7466c	-0.08167729
209	0x3d319b7c	0.043361172
210	0xbdfe232c	-0.12409052
211	0x3dd5ad9c	0.10433504
212	0xbbc16356	-0.0059017343
213	0x3e20e5a6	0.15712604
214	0xbad5eb60	-0.0016320758
215	0xbd90aeb5	-0.07064573
216	0x3dda3989	0.10655505
217	0x3de05a65	0.109547414
218	0x3e652b82	0.22379878
219	0xbe26583e	-0.16244599
220	0xbe3adcec	-0.18248338
221	0x3e52cad5	0.20585187
222	0x3d3d0785	0.04614975
223	0x3e3607cd	0.17776413
224	0x3e6c6d4f	0.23088573
225	0xbe20e828	-0.1571356
226	0xbe24d25d	-0.16095872
227	0x3da33ab7	0.07970183
228	0xbd06c27e	-0.032900326
229	0x3d3b0be1	0.045665625
230	0x3e14d573	0.1453455
231	0x3e016638	0.1263665
232	0xbe365fcb	-0.1780998
233	0xbe206640	-0.15664005
234	0xbce4b789	-0.027919548
235	0xbe2ebcdd	-0.17064233
236	0x3cff4dcc	0.031165026
237	0x3d7a3810	0.06108862
238	0xbe435730	-0.19076228
239	0x3e0c02a6	0.13672885
240	0xbdb1ec9e	-0.08687709
241	0x3e3a7dc1	0.18212034
242	0xbe239680	-0.1597538
243	0x3d574cc1	0.052563433
244	0x3e547fec	0.20751923
245	0xbb897887	-0.004195276
246	0xbe382939	-0.17984475
247	0x3da8346a	0.08213122
248	0xbe451823	-0.19247489
249	0x3da05de4	0.07830408
250	0x3c8490d7	0.016182346
251	0x3d8efebf	0.06982183
252	0x3e6c8200	0.23096466
253	0x3e39b8ac	0.18136853
254	0xbe1e6809	-0.15469374
255	0x3b98034b	0.0046390644

pim_conv1.bias f4 [64]
0	0x3e9323b5	0.2873818
1	0x3e56a4a0	0.20961237
2	0x3d48d2ce	0.049029164
3	0x3f07e65b	0.5308587
4	0x3dfd6f12	0.123747006
5	0x3f1825e5	0.5943282
6	0x3e84445a	0.25833398
7	0x3cdcab37	0.02693711
8	0x3e83dda7	0.25755045
9	0xbf622ff4	-0.8835442
10	0x3f45a383	0.77202624
11	0x3e29c7de	0.1658015
12	0x3ebb37ae	0.36565918
13	0x3e13a4e0	0.14418364
14	0xbbb495ed	-0.0055110366
15	0x3de8caac	0.113667816
16	0xbe276897	-0.16348492
17	0x3d00f67e	0.031485073
18	0x3f2aaa9d	0.66666585
19	0x3f687719	0.9080673
20	0xbe32cf84	-0.17461973
21	0x3f63ca27	0.88980335
22	0x3e695e7f	0.22789954
23	0x3d9ec790	0.07752907
24	0x3e72dd76	0.23717293
25	0xbe9d45bd	-0.3071727
26	0xbef79863	-0.4835845
27	0x3e8bfd8a	0.27341872
28	0x3ed18efc	0.409294
29	0x3ce5b64e	0.028041031
30	0x3f1b11c6	0.60573995
31	0x3f3209dc	0.69546294
32	0x3f2e1638	0.68002653
33	0x3efa3f63	0.48876485
34	0xbd97e105	-0.07415966
35	0xbec49dc0	-0.38401604
36	0x3edbeb60	0.42953014
37	0x3ead5d5c	0.3386029
38	0x3ef84aa9	0.4849446
39	0xbf006823	-0.501589
40	0x3ea401fc	0.32032764
41	0x3ec098fe	0.37616724
42	0x3c900e86	0.01758505
43	0xbee9c5f8	-0.4565885
44	0x3d96f6c7	0.07371288
45	0x3f0f5ae0	0.5599804
46	0xbeba198f	-0.36347625
47	0x3c98d850	0.018657833
48	0xbef7100c	-0.4825443
49	0x3e0f1dd4	0.13976222
50	0xbebc11c6	-0.3673231
51	0xbf16d97c	-0.58925605
52	0xbe55eebc	-0.20891851
53	0x3f06c81e	0.52649105
54	0xbce0c387	-0.027436985
55	0x3e853cbd	0.26022902
56	0xbebc628b	-0.36793932
57	0x3ea3a6d1	0.31963208
58	0x3edc82a2	0.43068415
59	0xbed94371	-0.42434266
60	0xbf466fd6	-0.775144
61	0xbdd48ffc	-0.10379025
62	0x3e690a09	0.22757734
63	0x3d48997c	0.0489745

pim_conv2.weight f4 [64, 64, 3, 3]
0	0x3d4f66eb	0.05063526
1	0x3d2758f2	0.04085631
2	0xbaaaecff	-0.0013040601
3	0x3d4d4f79	0.05012462
4	0x3d1533e0	0.036426425
5	0xbc8cb02a	-0.017173845
6	0xbdcfaacd	-0.101399995
7	0xbd86c538	-0.06580585
8	0xbdd4e494	-0.1039516
9	0x3d0c93c3	0.034320604
10	0x3da0b97c	0.07847878
11	0xbd23e250	-0.04001075
12	0xbae79ac9	-0.0017670031
13	0x3d529e16	0.051420294
14	0xbcae1ba5	-0.021253416
15	0xbc8bd0b8	-0.017067298
16	0x3d2208fb	0.039559346
17	0xbd0ebe85	-0.034849662
18	0x3d8e5e5a	0.0695159
19	0x3d6f730c	0.058459327
20	0x3bf03187	0.007330123
21	0xbcb1599a	-0.02164917
22	0x3d815302	0.063146606
23	0x3d332243	0.043733846
24	0xbd8c5b57	-0.06853359
25	0xbb958ea9	-0.0045641256
26	0x3caea7c0	0.021320224
27	0xbdde8da9	-0.10866863
28	0xbdca2dbc	-0.098720044
29	0x3d809015	0.062774815
30	0xbdb1646e	-0.086617336
31	0xbd970106	-0.07373242
32	0xbc5b575f	-0.01338753
33	0xbcf96b47	-0.030446662
34	0xbc7ade7d	-0.015311834
35	0xbd06f95f	-0.032952663
36	0xbd83d7e5	-0.06437663
37	0xbd867613	-0.065654896
38	0xbc73e979	-0.014887207
39	0xbc1cae13	-0.009562987
40	0xbce9b5c6	-0.02852906
41	0xbc927360	-0.01787728
42	0xbbd27b11	-0.006423362
43	0xbd85dc9b	-0.06536218
44	0xbc1b7ae0	-0.009489745
45	0x3d6aee6e	0.05735629
46	0x3d9bf7bb	0.0761561
47	0x3d1d7479	0.038441155
48	0x3d1ff1c4	0.039048925
49	0x3dde2920	0.10847688
50	0x3d4e6cbc	0.050396666
51	0xbbc914a9	-0.006136496
52	0x3cefc316	0.029267829
53	0xbca0b9f9	-0.019619929
54	0xbd63a7b9	-0.055579875
55	0xbd841c19	-0.06450672
56	0xbd7c5629	-0.061605606
57	0xbc8344bb	-0.016023984
58	0xbc3a6b7a	-0.0113781635
59	0xbcaaf86f	-0.020870415
60	0xbda3b6d1	-0.07993854
61	0xbd659123	-0.056046616
62	0xbc88fcf7	-0.016722186
63	0x3d801a35	0.062549986
64	0x3cce7367	0.025201513
65	0x3bdbb3d2	0.006704786
66	0x3da64e8b	0.0812045
67	0x3dadd992	0.08488764
68	0x3d3aa6f2	0.045569368
69	0xbd5e6247	-0.054292943
70	0xbd721b6c	-0.059108183
71	0xbdcda30c	-0.10040864
72	0x3d16a24f	0.036775883
73	0x3d984db9	0.074366994
74	0x3ca17cec	0.019712888
75	0x3d99e15c	0.07513687
76	0x3da5f8be	0.081040844
77	0x3e0dc062	0.1384292
78	0x3dbf64d0	0.093454
79	0x3db4fc62	0.08837201
80	0x3dc794bb	0.09745165
81	0xbe045af3	-0.1292532
82	0xbc8e10fc	-0.017342083
83	0xbd860c7f	-0.06545352
84	0xbd8eb1ad	-0.06967483
85	0xbd6e6c40	-0.058208704
86	0xbd16e430	-0.03683871
87	0xbd2ab4a5	-0.041676182
88	0xbd988285	-0.074467696
89	0xbdb18c8b	-0.086693846
90	0xbdefbac9	-0.11705548
91	0xbd173fbd	-0.03692602
92	0xbd4171ce	-0.047227673
93	0xbe6799a2	-0.226172
94	0xbe471d24	-0.1944471
95	0xbe0d1230	-0.13776469
96	0xbe86427c	-0.262226
97	0xbe633e7d	-0.22191806
98	0xbe5e4489	-0.21705832
99	0xbd8a970e	-0.06767093
100	0xbd928a5b	-0.071552955
101	0xbd4c1d53	-0.049832653
102	0xbcd165d1	-0.025561245
103	0xbd4152f6	-0.04719826
104	0x3c986f5e	0.018607792
105	0xbd4f5986	-0.050622486
106	0x3c0e15d6	0.008672198
107	0xbba310ac	-0.0049763527
108	0x3cdf4b83	0.027257686
109	0x3d2cd2f6	0.042193376
110	0x3d4adcda	0.049527027
111	0xbd138fce	-0.036025815
112	0xbca2d62f	-0.019877521
113	0x3d071c77	0.03298613
114	0xbd0c5628	-0.034261853
115	0x3c25dad4	0.0101229735
116	0xbd1beeba	-0.038069464
117	0xbcaa01d2	-0.020752821
118	0xbd2119f0	-0.039331377
119	0xbc53e5cb	-0.012933205
120	0xbd37dc7b	-0.044888
121	0xbd846dbd	-0.064662434
122	0xbbf4fb91	-0.007476278
123	0xbdf6b6fc	-0.1204662
124	0xbdd99631	-0.1062435
125	0xbdd83798	-0.10557479
126	0x3d889f81	0.06671048
127	0xbb947a7a	-0.004531202
128	0x3bd1c52d	0.006401679
129	0x3d8c5be8	0.06853467
130	0x3d6d2d25	0.05790438
131	0x3d1c195e	0.03811013
132	0xbca7f65a	-0.020503212
133	0x3d2dbcbd	0.042416323
134	0xbc954bcc	-0.01822462
135	0x3cbf0400	0.023317337
136	0x3cab45f0	0.020907372
137	0x3d88f839	0.0668797
138	0x3d2c129a	0.042009927
139	0x3d434752	0.04767544
140	0x3c7ccc59	0.01542958
141	0x3c1cef4f	0.00957854
142	0x3b4a2ecc	0.0030850647
143	0xbcdd08e9	-0.026981788
144	0xbd821cc0	-0.0635314
145	0xbc0cbc59	-0.008589827
146	0x3d0a0ec0	0.033705473
147	0x3d594114	0.05304058
148	0x3cfdcc53	0.030981218
149	0x3d624223	0.055238854
150	0xbcd96a60	-0.026539981
151	0x3c106221	0.008812458
152	0x3c8193c8	0.015817538
153	0x3d2a3b12	0.04156024
154	0x3d686e3f	0.056745764
155	0xbd10cf5e	-0.03535401
156	0xba98d794	-0.0011660927
157	0x3d34de01	0.044157032
158	0xbd499888	-0.04921773
159	0xbd8f779b	-0.07005235
160	0xbdad51a9	-0.08462841
161	0xbdb1c20b	-0.08679589
162	0x3da0db7e	0.07854365
163	0x3d68e796	0.056861483
164	0x3afee132	0.0019445776
165	0xbd61cbc7	-0.055125978
166	0xbd5a7625	-0.053335328
167	0xbd556552	-0.05209858
168	0xbdf858cc	-0.12126312
169	0xbd8858b3	-0.06657543
170	0xbdd02c2e	-0.101646766
171	0xbd533240	-0.051561594
172	0x3d3eaab5	0.046549518
173	0xbd7fd71e	-0.06246101
174	0xbd41fe92	-0.047361918
175	0xbd1114a1	-0.035420064
176	0x3bf31ec9	0.0074194414
177	0x3cdb44b4	0.026766159
178	0xbc34a344	-0.011025254
179	0x3cbd6115	0.023117581
180	0x3b80f16c	0.0039350297
181	0x3d7d1ee0	0.061797023
182	0x3dbf2282	0.09332754
183	0xbce32430	-0.027727216
184	0x3b71d98a	0.0036903345
185	0xbccebb12	-0.025235686
186	0xbdb7d894	-0.08976856
187	0xbd3b702c	-0.045761272
188	0xbdaa9420	-0.08329034
189	0xbc0ee1d0	-0.00872083
190	0xbd2abab7	-0.04168197
191	0xbdd0618a	-0.10174854
192	0x3cc31925	0.0238157
193	0xbc864ebd	-0.016394967
194	0xbdc2cbdc	-0.09511539
195	0xbd7adb8d	-0.061244536
196	0xbd6dec9a	-0.05808697
197	0xbd85f79c	-0.06541368
198	0x3d2da5b6	0.042394362
199	0x3d50de7c	0.050993428
200	0x3d333096	0.043747507
201	0xbc04fe8e	-0.008117331
202	0x3d52127f	0.05128717
203	0xbd272f41	-0.04081655
204	0xbdaece33	-0.08535423
205	0xbc579b43	-0.013159576
206	0xbde7cb04	-0.11318019
207	0x3ccdebea	0.025136907
208	0x3e0162a8	0.1263529
209	0x3df62153	0.12018075
210	0x3d3586e0	0.04431808
211	0x3df6e767	0.12055855
212	0x3dba7460	0.09104228
213	0xbc3ef00f	-0.011653914
214	0x3d817551	0.063212045
215	0x3e06808d	0.13134976
216	0xbc41806f	-0.011810406
217	0x3b58072d	0.0032963261
218	0xbccffa41	-0.025387885
219	0x3cf906a4	0.030398674
220	0xbcbddea5	-0.023177454
221	0xbd8c991e	-0.06865142
222	0xbd624d57	-0.05524954
223	0xbd4e7065	-0.050400157
224	0xbd0fc5d0	-0.035100758
225	0xbde54869	-0.11195452
226	0xbdcc39e3	-0.099719785
227	0xbdd1099d	-0.10206912
228	0xbd90eba4	-0.07076195
229	0xbc790411	-0.015198723
230	0xbd240943	-0.040047895
231	0xbd873d49	-0.06603486
232	0xbd3cd588	-0.046102077
233	0xbd1f5982	-0.03890372
234	0x3dda4d6f	0.106593005
235	0x3dc04435	0.093880095
236	0x3d64432d	0.055728126
237	0x3d0f1b5b	0.034938198
238	0x3d5a5cb7	0.053311076
239	0x3db07e07	0.08617788
240	0x3d8a5a0f	0.067554586
241	0x3cc745f2	0.024325345
242	0x3bd89a15	0.006610165
243	0x3cbd69a1	0.023121657
244	0x3d8dbd65	0.0692089
245	0xbc5d0d9d	-0.013492015
246	0x3d29ae4e	0.041425996
247	0x3b533fa6	0.0032233982
248	0xbd273573	-0.040822458
249	0x3abfb272	0.0014625324
250	0xbc0c3cb5	-0.008559396
251	0xbdd93e41	-0.10607577
252	0x3dad8b74	0.08473864
253	0x3dcd0a2f	0.10011708
254	0x3dcae8d4	0.0990769
255	0x3d56a977	0.052407708

pim_conv2.bias f4 [64]
0	0x3d072856	0.03299745
1	0xbb36d16d	-0.0027895824
2	0xbba03ec6	-0.0048902957
3	0xbd1d54f0	-0.03841108
4	0xbc87169b	-0.016490271
5	0xbba54f95	-0.0050448873
6	0xba8f7ff1	-0.0010948164
7	0xbcabcacf	-0.02097073
8	0x3d04613f	0.032319304
9	0x3d2f3347	0.04277351
10	0xbcfce45b	-0.030870607
11	0xbb34f8d0	-0.0027614124
12	0x3c1123c7	0.008858628
13	0xbc7c601c	-0.015403774
14	0x3c3ab710	0.011396185
15	0x3d172f35	0.036910255
16	0xbb24ac4c	-0.002512711
17	0xbd0e8ee1	-0.03480423
18	0x3c874cc9	0.016516106
19	0x3c82e8cc	0.015980147
20	0x3b80e8ed	0.003934017
21	0xbc807aeb	-0.015683612
22	0x3d1ae831	0.03781909
23	0x3c34b23b	0.011028822
24	0x3af2138c	0.001846896
25	0xbd2e2312	-0.042513914
26	0x3b8e9d20	0.004352227
27	0xbb74066d	-0.0037235275
28	0x3d0e55ee	0.034749918
29	0xbb5a0bec	-0.0033271266
30	0xbc9c7fbe	-0.019103881
31	0xbc376427	-0.011193312
32	0xbc5f47a7	-0.013627923
33	0xbca2ef54	-0.019889511
34	0x3c77e938	0.015131287
35	0x3d25ff1d	0.040526498
36	0x3d1de777	0.03855082
37	0x3a439385	0.0007460642
38	0xbd0ce9e3	-0.03440274
39	0x3d2390ca	0.039933003
40	0xbcc095a2	-0.02350885
41	0x3cc46fb3	0.023979044
42	0xbccf36d8	-0.025294706
43	0x3ce5c36e	0.02804729
44	0x3d1d974f	0.038474377
45	0x3d1c9e16	0.0382367
46	0xbd0f9605	-0.03505518
47	0xbd03ef5c	-0.032210693
48	0xbd441157	-0.0478681
49	0x3c8d6e6e	0.017264571
50	0x3d164318	0.03668508
51	0xbcf331d8	-0.029686853
52	0x3cb801eb	0.022461852
53	0x3cd84ea6	0.02640469
54	0xbcf6fa32	-0.0301486
55	0x3cba89e7	0.022770835
56	0xbc52decd	-0.012870503
57	0xbd69cb7d	-0.057078827
58	0xbd121442	-0.03566385
59	0xbb25bdc1	-0.0025290104
60	0xbbe7a373	-0.007069045
61	0x3d0ef712	0.034903593
62	0xbb97be2d	-0.004630825
63	0x3c9ec1a0	0.019379437

pim_conv3.weight f4 [64, 64, 3, 3]
0	0xbdf918df	-0.12162947
1	0xbdc26aa7	-0.094929986
2	0xbd6ef9ff	-0.058343884
3	0xbd6f155d	-0.058369983
4	0xbd26a672	-0.04068608
5	0xbd925649	-0.07145364
6	0xbda0ab64	-0.0784519
7	0xbd38f9c1	-0.04516006
8	0xbdcd9895	-0.10038868
9	0xbdefe1aa	-0.11712964
10	0xbdfa476a	-0.122206524
11	0xbdbaa2a6	-0.09113054
12	0xbdad8793	-0.08473124
13	0xbdce4e68	-0.100735486
14	0xbdca03bf	-0.09863996
15	0xbdccbafa	-0.099966004
16	0xbdfa7ba1	-0.122306116
17	0xbda4fba4	-0.08055809
18	0x3dbb59c6	0.09147982
19	0x3e27f00a	0.16400161
20	0x3e16a26d	0.14710398
21	0x3e2bdfa9	0.16784538
22	0x3e221a66	0.15830383
23	0x3e20e4ec	0.15712327
24	0x3e075391	0.13215472
25	0x3e28f6dc	0.1650042
26	0x3e58ddf6	0.21178421
27	0xbd9a4c82	-0.07534124
28	0xbdc993da	-0.098426536
29	0xbcc24c6c	-0.023718081
30	0xbd64fe51	-0.055906598
31	0xbda81a9a	-0.08208199
32	0xbda773bd	-0.08176372
33	0xbd681bd1	-0.056667153
34	0xbd55a8bf	-0.052162882
35	0x3cc3c546	0.023897778
36	0xbcb34dcb	-0.02188768
37	0xbdabdab6	-0.08391325
38	0x3c1aea32	0.009455251
39	0xbe08030c	-0.13282412
40	0x3cc4208a	0.023941297
41	0xbd43fd40	-0.04784894
42	0xbdfa5203	-0.12222674
43	0xbd30c5b6	-0.0431573
44	0xbccbfe79	-0.024901615
45	0x3d35cc2e	0.044384174
46	0x3d3e8558	0.046513885
47	0xbdc1cded	-0.09463105
48	0x3cdb6cd9	0.026785301
49	0x3d25939e	0.04042398
50	0xbdf76eb9	-0.120816655
51	0xbc321ac1	-0.010870636
52	0x3c4f19a8	0.012640394
53	0xbe146399	-0.14491118
54	0xbc52b443	-0.012860361
55	0xbc4744b7	-0.012162379
56	0x3d3284b9	0.043583605
57	0xbcf91925	-0.030407498
58	0xbc539c78	-0.012915723
59	0xbc352971	-0.011057244
60	0xbcf6a3bf	-0.030107377
61	0xbb30ff90	-0.0027007796
62	0x3d2ade7c	0.041716084
63	0x3ad10792	0.0015947691
64	0x3d89cb28	0.06728202
65	0xbcac7517	-0.021051927
66	0x3d763f42	0.06011892
67	0xbbfa3043	-0.007635148
68	0xbc85d610	-0.016337425
69	0xbcb29d7d	-0.021803612
70	0xbd467253	-0.04844887
71	0xbc840d58	-0.016119644
72	0x3b6b8444	0.003593699
73	0xbd5a1704	-0.053244606
74	0xbd3e9a81	-0.046534065
75	0xbd46cf70	-0.04853767
76	0xbc7e05e9	-0.015504339
77	0xbd72d8db	-0.05928884
78	0xbd50ea59	-0.05100474
79	0xbd1d1e17	-0.038358774
80	0x3bea5368	0.007151056
81	0x3c9c1063	0.019050783
82	0xbb93bfe0	-0.0045089573
83	0xbd9718db	-0.07377788
84	0x3bc0263a	0.005863932
85	0xbdad33ce	-0.084571466
86	0xbdbb7be5	-0.091544904
87	0xbd1fdf02	-0.039031036
88	0xbc7a528b	-0.015278469
89	0xbc952351	-0.018205317
90	0xbdb37d97	-0.08764189
91	0xbe2a6ea4	-0.16643769
92	0xbd8c3eb3	-0.068478964
93	0xbddc9a1a	-0.1077158
94	0xbddbabe2	-0.107261434
95	0xbe0cb588	-0.13741124
96	0xbdb110be	-0.086457714
97	0xbdcd5867	-0.10026627
98	0xbcc64047	-0.024200572
99	0xbcd5b5b6	-0.026087623
100	0xbd695867	-0.056969073
101	0xbd61beed	-0.05511372
102	0xbd0e158b	-0.034688514
103	0x3b0e641c	0.002172715
104	0xbd3c5098	-0.045975298
105	0x3c83b7b2	0.016078804
106	0xbd02a83c	-0.031898722
107	0xbd480ec3	-0.048842203
108	0xbe2286c7	-0.15871726
109	0xbdcd012e	-0.10009991
110	0xbe182d1e	-0.14860961
111	0xbdc360d9	-0.095399566
112	0xbd710cba	-0.058850028
113	0xbdbc68c9	-0.09199674
114	0xbe1e8cc9	-0.15483393
115	0xbdbf4c6d	-0.09340749
116	0xbd8bf028	-0.068329155
117	0xbd3e5b6e	-0.046473913
118	0x3c521e57	0.012824616
119	0xbd854a3c	-0.065083
120	0xbd86219e	-0.06549381
121	0xbdbad789	-0.09123141
122	0xbe054088	-0.13012898
123	0x3a143837	0.00056541286
124	0xbdc31b30	-0.0952667
125	0xbd37a938	-0.044839114
126	0xbd756bbe	-0.059917204
127	0xbd09c63c	-0.033636317
128	0xbc711689	-0.014714845
129	0xbdd0e680	-0.102002144
130	0xbd39f4ac	-0.045399353
131	0xbd252a41	-0.0403235
132	0xbd4e77cc	-0.050407216
133	0xbcf45b10	-0.029828578
134	0xbd0922fc	-0.03348063
135	0x3c885943	0.016644126
136	0x3d021501	0.031758312
137	0x3cb3706a	0.02190419
138	0xbc27a809	-0.010232934
139	0x3be3f698	0.0069568865
140	0xbd084439	-0.033268187
141	0xbd1c0f41	-0.038100485
142	0xbca47908	-0.020077243
143	0xbd69f99a	-0.057122804
144	0xbd224e1a	-0.039625265
145	0x3da010d5	0.078157105
146	0x3d4d7ec6	0.05016973
147	0x3bfbea84	0.0076878686
148	0x3d11e4d7	0.03561863
149	0xbbad85b5	-0.00529548
150	0x3c68ac7e	0.014201282
151	0x3d5c2622	0.053747304
152	0xbae5dd9b	-0.0017537357
153	0xbd832d61	-0.0640514
154	0xbd82e406	-0.06391148
155	0xbc84c5b2	-0.01620755
156	0xbd95960c	-0.0730401
157	0xbd413a70	-0.04717487
158	0xbdc058e3	-0.09391954
159	0xbcf5a61d	-0.029986436
160	0xbd9a6397	-0.075385265
161	0xbd9a7073	-0.07540979
162	0xbb688d7d	-0.0035484724
163	0xbd1a5086	-0.03767445
164	0xbbb17304	-0.0054153223
165	0xbd1d9dbf	-0.038480517
166	0xbbf23bd7	-0.0073923874
167	0xbba5deb1	-0.0050619473
168	0xbd28ac57	-0.04117998
169	0xbd04220e	-0.03225904
170	0xbd995eeb	-0.07488807
171	0xbde6fe08	-0.11278921
172	0xbddc73d3	-0.10764279
173	0xbd93cf61	-0.07217289
174	0xbdc6af9f	-0.09701466
175	0xbda669ec	-0.08125672
176	0xbdd0d9fa	-0.10197826
177	0xbe0149e8	-0.12625849
178	0xbc3e5a45	-0.011618202
179	0xbde56629	-0.11201126
180	0xbd6364c6	-0.055516027
181	0xbd3fa0eb	-0.046784323
182	0xbb85de02	-0.0040853033
183	0xbd87d6fe	-0.066328034
184	0xbcd384a1	-0.025820078
185	0xbc8f22b4	-0.017472602
186	0xbd26233f	-0.040560957
187	0xbd7ebfdb	-0.062194686
188	0xbd779528	-0.06044498
189	0xbc6ff29d	-0.014645246
190	0xbd40dea1	-0.047087315
191	0xbd094b70	-0.03351921
192	0xbcb16bce	-0.02165785
193	0xbcea6b91	-0.028615745
194	0xbdb04377	-0.08606618
195	0xbd901264	-0.07034758
196	0xbd256c77	-0.040386643
197	0xbd4a6d0c	-0.0494204
198	0x3ce82df0	0.028342217
199	0x3ce492e7	0.02790208
200	0xb9325034	-0.00017005281
201	0x3ccd7a2b	0.025082668
202	0x3d0b54cc	0.034016415
203	0x3d86c303	0.06580164
204	0x3b475281	0.0030414166
205	0x3d5b571e	0.05354988
206	0x3b2073ee	0.0024483162
207	0xbcebd713	-0.028789079
208	0x3c180a49	0.009279796
209	0x3b5fc17a	0.003414242
210	0xbd329993	-0.04360349
211	0xbcdf24e2	-0.027239267
212	0xbd91447c	-0.070931405
213	0xbdb85a46	-0.09001593
214	0xbd297346	-0.0413697
215	0xbd968137	-0.073488645
216	0xbbd3ef2b	-0.00646772
217	0xbc62b9f8	-0.013838284
218	0xbd9091f8	-0.07059091
219	0xbd1fbed8	-0.039000362
220	0xbd8139ce	-0.063098535
221	0xbd8d32f7	-0.068944864
222	0xba080161	-0.0005188194
223	0xbd1af58e	-0.037831835
224	0x3cd70b83	0.026250606
225	0xbcde41e7	-0.027131034
226	0x3aa2865d	0.0012399663
227	0xbce4bf9f	-0.027923403
228	0xbd4af899	-0.049553487
229	0xbd1c1be4	-0.038112536
230	0xbd4f9a35	-0.050684173
231	0xbc34c7dd	-0.011033979
232	0x3c42ea99	0.011896753
233	0xbce5e239	-0.028061973
234	0xbd2c245f	-0.042026874
235	0x3bdfa46f	0.006825022
236	0xbda5d88e	-0.08097945
237	0xbd985d15	-0.07439629
238	0x3c4f39ea	0.012648085
239	0xbd72f482	-0.059315212
240	0xbb70f1c6	-0.0036765202
241	0xbca3e6f8	-0.020007595
242	0xbd841c18	-0.06450671
243	0xbd5c1bdc	-0.053737506
244	0xbdca480d	-0.09877024
245	0xbe015054	-0.12628299
246	0xbd08df09	-0.033415828
247	0xbdae4974	-0.08510104
248	0xbd9e209b	-0.07721063
249	0xbd88e296	-0.06683843
250	0xbdb81d48	-0.0898996
251	0xbdaa0255	-0.08301226
252	0xbd816de7	-0.0631979
253	0xbc9bcfe5	-0.01902003
254	0xbd80e2e5	-0.06293277
255	0xbdd309e9	-0.103046246

pim_conv3.bias f4 [64]
0	0x3cc2367c	0.02370762
1	0x3c819421	0.015817704
2	0x3b3ed474	0.002911833
3	0x3cc39211	0.02387336
4	0xbb3ce028	-0.002882013
5	0xbcba0fd5	-0.022712627
6	0xbc9e9ce4	-0.01936192
7	0x3c8e211f	0.017349778
8	0x3d3889c4	0.04505326
9	0xbcb238bd	-0.02175557
10	0x3ceb40e4	0.028717466
11	0x399e475c	0.00030189275
12	0x3d261d01	0.040555004
13	0xbb44d647	-0.0030034946
14	0xbcbef309	-0.023309248
15	0xbcf31595	-0.029673377
16	0xbcc44bd1	-0.023961933
17	0xbbb9d3bc	-0.0056709927
18	0xbc8dcb46	-0.017308842
19	0x3cc60f01	0.024177076
20	0x3bddbf0e	0.0067671603
21	0x3c394efb	0.011310334
22	0xba7d59ef	-0.0009664585
23	0x39c53bef	0.00037619422
24	0x3cd21f6c	0.025649749
25	0x3d2359f3	0.039880704
26	0xbc988766	-0.01861925
27	0x3d10a21a	0.035310842
28	0xbc1f86e7	-0.009736753
29	0xbb07be6b	-0.0020712863
30	0x3bf41874	0.007449204
31	0x3cdf2316	0.02723841
32	0xb9879701	-0.00025861713
33	0x3d074a12	0.033029623
34	0xbbab8b3d	-0.0052351044
35	0xbd1e2428	-0.0386087
36	0xbd229bd7	-0.0396994
37	0x3cbf70e5	0.023369262
38	0xbbccd5af	-0.006251059
39	0xbcb395ec	-0.021922074
40	0xbb45e495	-0.003019606
41	0xbcc17bde	-0.023618635
42	0x3d0bbbd0	0.03411466
43	0x3cee1bc9	0.029065983
44	0x3c419f0f	0.011817708
45	0x3ca432b7	0.020043714
46	0x3c44c849	0.012010642
47	0x3d25bb55	0.040461857
48	0xbaff95b6	-0.0019499573
49	0xbca7749d	-0.020441348
50	0xbcecbbf8	-0.028898224
51	0x3c0e0b9b	0.008669759
52	0x3bd2b309	0.006430034
53	0x3ad70704	0.0016405289
54	0x3d115d0a	0.03548912
55	0x3cc2a743	0.023761397
56	0xbc0b4685	-0.0085007
57	0x3b493cce	0.0030706408
58	0xbd1481de	-0.036256664
59	0xbd1c9c40	-0.03823495
60	0x3c5350f2	0.012897717
61	0xbbcf42af	-0.006325088
62	0x3b1bc742	0.002376989
63	0xbb885a15	-0.0041611292

pim_conv4.weight f4 [64, 64, 3, 3]
0	0xbe12d935	-0.1434067
1	0xbdf2d676	-0.118573114
2	0xbdeabc49	-0.11461694
3	0xbdcf50b2	-0.10122813
4	0xbd74161b	-0.059591394
5	0xbcee2669	-0.02907105
6	0xbddc807f	-0.10766696
7	0xbde5b385	-0.11215881
8	0xbd1a5ed3	-0.037688088
9	0x3c859333	0.016305542
10	0x3d2d4886	0.042305492
11	0x3bbe9a9f	0.005816772
12	0x3d5e430e	0.054263167
13	0x3c9015b1	0.017588468
14	0x3c81c535	0.015841106
15	0x3d5318f7	0.05153748
16	0x3ca9dd52	0.020735417
17	0xbcd0e3de	-0.02549928
18	0xbd2edf8b	-0.042693656
19	0xbc46d9d4	-0.012136895
20	0xbdf68349	-0.120367594
21	0xbd46668a	-0.048437633
22	0xbd2c2198	-0.042024225
23	0xbd3602ef	-0.04443639
24	0xbda8bae9	-0.08238775
25	0xbda6ccba	-0.08144517
26	0xbd92edc4	-0.071742564
27	0x3d814156	0.0631129
28	0x3d2d63c8	0.042331487
29	0xbc353457	-0.011059842
30	0x3d8abc17	0.067741565
31	0x3dbf717c	0.09347817
32	0xbd05caec	-0.032664225
33	0x3d68e7c9	0.056861673
34	0x3d775df3	0.06039233
35	0xbca3b6da	-0.019984651
36	0xbcbbc7c2	-0.0229224
37	0x3c22367f	0.009900688
38	0x3da54b6f	0.080710284
39	0xbbc8dac7	-0.006129596
40	0xbc462b7e	-0.01209533
41	0xbd3d2911	-0.046181742
42	0xbcf37e28	-0.029723242
43	0xbd480147	-0.048829343
44	0xbc96ff99	-0.018432425
45	0x3c9acea2	0.018897358
46	0xbd3c52b8	-0.045977324
47	0xbd6d0f3c	-0.057875857
48	0xbd0a5157	-0.033768978
49	0xbd6966ad	-0.056982685
50	0xbd972b69	-0.07381327
51	0x3b607893	0.0034251555
52	0xbddda312	-0.10822119
53	0xbd86262f	-0.06550252
54	0xbd2d35ee	-0.04228776
55	0xbd405d4b	-0.04696397
56	0xbce011c1	-0.027352216
57	0x3cd998ca	0.026562113
58	0xbd00ce97	-0.03144702
59	0x3bc635f7	0.0060489136
60	0x3cf0c806	0.029392254
61	0x3d8cb182	0.068697944
62	0x3d17cd2f	0.037060913
63	0xbd0c45e0	-0.034246325
64	0xbcdecbec	-0.027196847
65	0xbd088d3e	-0.033337824
66	0xbbcc2661	-0.006230161
67	0xbcde119f	-0.027108012
68	0xbdb8f4bc	-0.090310544
69	0xbc7afca2	-0.015319021
70	0x39c5d6d9	0.00037734842
71	0xbd39ef86	-0.045394443
72	0x3d25aa7d	0.040445793
73	0x3d88f525	0.066873826
74	0x3bf1577b	0.007365165
75	0x3d4a119a	0.049333192
76	0x3d68f395	0.056872923
77	0x3d97c5aa	0.07410748
78	0x3d3d2340	0.046176195
79	0x3c256ece	0.010097219
80	0xbcecb505	-0.02889491
81	0xbb5e8279	-0.003395228
82	0xbd68cc3d	-0.0568354
83	0x3afac1c8	0.0019131238
84	0xbca47844	-0.020076878
85	0xbc56f5e4	-0.013120148
86	0xbd298100	-0.04138279
87	0xbd69b82e	-0.057060413
88	0xbc456d56	-0.0120499935
89	0xbca41f9a	-0.0200346
90	0xbc87da89	-0.016583698
91	0x3b92daa5	0.004481631
92	0xbc093edb	-0.008376802
93	0x3d9b9d83	0.07598402
94	0x3cd1670e	0.025561836
95	0x3d51259c	0.051061258
96	0x3be80cf6	0.007081623
97	0x3cdd88ef	0.027042834
98	0xbc41e090	-0.011833325
99	0xbd5578d5	-0.052117188
100	0xbbe08ea0	-0.0068529397
101	0xbcca2615	-0.024676362
102	0xbcb691be	-0.022286292
103	0x3beeddb1	0.0072896113
104	0xbd87ff34	-0.06640473
105	0xbac3f1d5	-0.0014949391
106	0xbd36630e	-0.04452806
107	0xbcdc954d	-0.02692666
108	0x3dfb0052	0.122559205
109	0x3deff444	0.11716512
110	0x3da66723	0.081251405
111	0x3d8509e2	0.064960256
112	0x3dae0131	0.08496321
113	0x3d87cd97	0.0663101
114	0xbcdc32d3	-0.026879704
115	0x3ccf5cf5	0.02531288
116	0x3d8ccbee	0.06874834
117	0x3d8e50fa	0.06949039
118	0x3e0db799	0.13839568
119	0x3dc3a64e	0.095532045
120	0x3e074152	0.13208511
121	0x3df4e264	0.11957243
122	0x3e091216	0.13385805
123	0x3dd2b238	0.10287899
124	0x3df9cd7a	0.12197395
125	0x3e058b6b	0.13041465
126	0x3dacb918	0.08433741
127	0x3cc0c5e3	0.02353186
128	0x3d032b7d	0.032023896
129	0x3d225f93	0.039641928
130	0x3aaa71e7	0.0013003916
131	0xbbd0b0b0	-0.006368719
132	0x3d0583a0	0.03259623
133	0x3d0fc1f3	0.035097074
134	0xbd451ca5	-0.04812302
135	0xbd5dedb7	-0.05418178
136	0xbd9abbd1	-0.075553544
137	0xbd85acb7	-0.06527083
138	0xbdba5568	-0.09098321
139	0xbdbbc5c7	-0.091685824
140	0xbc8d2ebb	-0.017234197
141	0xbd4f87d8	-0.05066666
142	0xbcde1506	-0.027109634
143	0xbcb1c1bf	-0.02169883
144	0xbcc53439	-0.024072753
145	0xbdb4899d	-0.0881531
146	0xbd4ce8d8	-0.050026745
147	0xbcec7333	-0.028863525
148	0xbced86a7	-0.028994871
149	0xbd383b50	-0.04497844
150	0xbc28bcaa	-0.010298887
151	0xbced5233	-0.02896986
152	0xbd4299c3	-0.04750992
153	0xbce5a15f	-0.02803105
154	0xbd182d9f	-0.037152883
155	0xbb34c9df	-0.0027586145
156	0xbcac7f1e	-0.021056708
157	0xbb4b1af3	-0.0030991405
158	0xbd23bdca	-0.03997592
159	0x3cb165e5	0.021655032
160	0xbd2498ee	-0.040184908
161	0xbc870c4a	-0.016485352
162	0x3cbcbc02	0.023038868
163	0x3bc16730	0.0059021935
164	0x3dcc98b0	0.0999006
165	0x3d80d26f	0.06290137
166	0x3d00a502	0.031407364
167	0x3dd94d39	0.10610432
168	0x3d9ccbbb	0.07656046
169	0x3cfba5b5	0.030718664
170	0x3db75ff3	0.08953848
171	0x3d7d9d9f	0.061917897
172	0xbc664f24	-0.0140569545
173	0xbbedf2f8	-0.00726163
174	0x3b92daa0	0.0044816285
175	0xbc23debe	-0.010001836
176	0x3c357e3e	0.011077462
177	0x3d2755c5	0.04085328
178	0xba21b6cc	-0.00061689015
179	0x3c07c75e	0.008287279
180	0xbd54adc2	-0.05192352
181	0xbd70ee8f	-0.058821257
182	0xbc1523e8	-0.009102799
183	0xbd2ce329	-0.042208824
184	0xbd8a7df5	-0.06762306
185	0xbd00ce31	-0.03144664
186	0xbda96ff3	-0.08273306
187	0xbc406f76	-0.011745324
188	0x3d41f24e	0.04735022
189	0xbda74972	-0.081683055
190	0xbdaa7ac0	-0.08324194
191	0x3cd281c5	0.025696645
192	0xbdf28017	-0.118408374
193	0xbda01d2e	-0.078180656
194	0xbd3f8bc1	-0.04676414
195	0xbdd28d6f	-0.102808826
196	0xbda52933	-0.08064499
197	0xbd19517c	-0.037431225
198	0x3babd364	0.0052437056
199	0xbb40b55e	-0.0029404978
200	0x3c3a7819	0.011381173
201	0x3d45eef0	0.04832357
202	0x3da6a487	0.0813685
203	0x3dcf744d	0.101296045
204	0x3da37ee3	0.07983186
205	0x3cccd240	0.025002599
206	0x3d772724	0.06034006
207	0x3d630150	0.055421174
208	0x3daf8974	0.08571139
209	0x3dc8c68f	0.09803497
210	0x3d67b62d	0.05657022
211	0x3c88a60c	0.01668074
212	0x3d7fef73	0.062484216
213	0x3d9e81a6	0.07739572
214	0x3d90d6ae	0.07072197
215	0x3dc0104b	0.09378108
216	0xbc966887	-0.01836039
217	0x3cbc0119	0.022949742
218	0x3c555349	0.013020345
219	0xbca7977f	-0.020457981
220	0xbd202722	-0.03909982
221	0x3c87417c	0.016510718
222	0x3b912d36	0.0044304384
223	0xbd23e674	-0.0400147
224	0x3aa3fa12	0.001251044
225	0x3d6018d5	0.05471118
226	0x3d57b49d	0.05266248
227	0xbcea4308	-0.028596416
228	0xbce10a9d	-0.027470881
229	0x3dab99af	0.08378922
230	0x3db7e68c	0.0897952
231	0xbcd26af4	-0.025685765
232	0x3d1c11ea	0.03810302
233	0x3d815131	0.06314314
234	0x3cf9495e	0.030430492
235	0x3d596798	0.05307731
236	0x3b5547a4	0.0032543922
237	0xbcdd7d79	-0.02703737
238	0x3c3a84b6	0.01138418
239	0xbd014f03	-0.031569492
240	0xbd2da673	-0.042395066
241	0x3d1fcd64	0.039014235
242	0xbd600dc6	-0.054700635
243	0x3c69a625	0.014260803
244	0xbcd63739	-0.02614938
245	0xbb15d0d9	-0.0022860079
246	0xbc053672	-0.008130657
247	0x3c350723	0.011049065
248	0xbd303015	-0.043014605
249	0xbd4b884a	-0.049690522
250	0xbcef2909	-0.029194372
251	0xbd480e36	-0.048841678
252	0x3de54707	0.11195188
253	0x3da72488	0.08161265
254	0x3d13950a	0.036030807
255	0x3d894aea	0.06703742

pim_conv4.bias f4 [64]
0	0xbc91b0ec	-0.017784558
1	0x3b53f5a9	0.003234247
2	0x3d1f853f	0.038945433
3	0xbca6ae3c	-0.020346753
4	0x3d00de88	0.031462222
5	0x3c2481d8	0.010040723
6	0xbd331890	-0.043724597
7	0x3c02657e	0.007958768
8	0x3ccbbe11	0.024870904
9	0xbd16af32	-0.036788173
10	0xbbc07fdf	-0.0058746184
11	0x3ccc9004	0.024971016
12	0xbd0e4cc8	-0.034741193
13	0xbd295187	-0.041337516
14	0xbb9a67e5	-0.004712092
15	0xbd0f5c10	-0.034999907
16	0x3cef1afc	0.029187672
17	0xbd021f43	-0.031768095
18	0x3d01d2b5	0.031695087
19	0xbc928825	-0.017887184
20	0xbcfc476b	-0.030795773
21	0xbcbbcb4c	-0.022924088
22	0x3bc931b1	0.006139957
23	0xbc9e149c	-0.019296937
24	0x3d0d99f3	0.034570646
25	0x3ba82528	0.0051313825
26	0xbcf32125	-0.02967889
27	0xbb1cc513	-0.0023921176
28	0xbc84fda3	-0.016234225
29	0x3c06b685	0.008222227
30	0xbc9ebfe7	-0.019378616
31	0xbc78b44b	-0.015179704
32	0xbbb0e266	-0.0053980825
33	0xbc8f4dd2	-0.017493162
34	0xbaf4cb91	-0.001867639
35	0x3c2c3837	0.01051145
36	0xbca81844	-0.020519383
37	0xbceb4c63	-0.028722947
38	0x3c1a0a03	0.009401801
39	0xbb6de522	-0.0036299904
40	0x3d032890	0.032021105
41	0xbad4baae	-0.0016229951
42	0xbbc3e0a2	-0.005977706
43	0xbc0d1e78	-0.008613221
44	0xbbd40717	-0.0064705717
45	0xbcb39ed2	-0.021926317
46	0x3cbe0341	0.023194911
47	0x3d0fb780	0.03508711
48	0x3cbe2f42	0.023215894
49	0x3c98d9ee	0.018658604
50	0xbd18a41f	-0.037265893
51	0xbcd2b3cc	-0.0257205
52	0x3cbde495	0.023180285
53	0xbd22c111	-0.039734904
54	0x3d048671	0.032354776
55	0x3c7065f5	0.014672746
56	0xbd36e39e	-0.044650666
57	0xbd1bb602	-0.038015373
58	0x3d2a6af7	0.041605916
59	0x3d250284	0.040285602
60	0xbc3e900e	-0.011631025
61	0xbc890d21	-0.016729893
62	0xbce1ec23	-0.02757842
63	0x3c13512b	0.00899152

pim_conv5.weight f4 [64, 64, 3, 3]
0	0xbcc8889d	-0.024479205
1	0xbd75399d	-0.059869397
2	0xbe20f7dd	-0.15719552
3	0xbd11c27b	-0.03558586
4	0xbcf85881	-0.03031564
5	0xbd88bf6e	-0.06677137
6	0xbddc62d8	-0.107610404
7	0xbde6f7da	-0.11277743
8	0xbe21758a	-0.15767494
9	0x3e1e9bb2	0.1548908
10	0x3e0fbccf	0.14036869
11	0x3e19ba33	0.15012436
12	0x3db7a257	0.08966511
13	0x3dda1f80	0.106505394
14	0x3db9f055	0.09079043
15	0x3dd9c7f3	0.106338404
16	0x3dc61bf4	0.096733004
17	0x3ded6689	0.11591823
18	0x3c8eb429	0.017419891
19	0x3cb08fa0	0.02155286
20	0xbceac5f0	-0.028658837
21	0xbc259025	-0.0101051675
22	0xbd2d2c0e	-0.042278342
23	0xbd4bb4e7	-0.04973307
24	0xbd500f46	-0.050795816
25	0xbaaa58bf	-0.0012996419
26	0xbcebf95e	-0.028805431
27	0x3c13598c	0.008993518
28	0x3b544356	0.0032388768
29	0x3b139a6e	0.0022522467
30	0x3bdc6d57	0.0067269015
31	0x3c57215b	0.013130511
32	0xbce097a4	-0.027416058
33	0xbca0b9ce	-0.019619849
34	0x3b9a4f4e	0.004709161
35	0xbd3070c1	-0.04307628
36	0x3dc9c63d	0.09852264
37	0xbd05487c	-0.03253983
38	0xbce12312	-0.027482543
39	0x3c29ba2a	0.010359326
40	0xbda578b9	-0.08079667
41	0xbd206d5b	-0.03916679
42	0xbd0daa00	-0.034585953
43	0xbd7c6d11	-0.06162745
44	0xbd74b824	-0.059745923
45	0xbd43a618	-0.04776582
46	0xbcae1f5d	-0.02125519
47	0xbd14bb7b	-0.036311608
48	0x3c636fa1	0.013881595
49	0x3d5ea297	0.054354277
50	0xbcd130b4	-0.025535919
51	0x3d007097	0.031357374
52	0x3d69a1ab	0.057038944
53	0x3ce01c5b	0.027357271
54	0x3c848aac	0.016179405
55	0x3c3ca28f	0.011513366
56	0x3cee33c9	0.029077427
57	0x3d15a595	0.036534864
58	0x3d4747d8	0.0486525
59	0xbbc53fdf	-0.006019577
60	0xbc8b89e6	-0.017033529
61	0xbc2b7b7b	-0.010466452
62	0xbcc73081	-0.02431512
63	0xbdcf9b59	-0.10137052
64	0xbe118952	-0.1421254
65	0xbe31fe2c	-0.17382115
66	0xbdbfdfb3	-0.09368839
67	0xbd4ce00d	-0.05001836
68	0xbd8bd08d	-0.06826887
69	0xbe0f249e	-0.13978812
70	0xbdbdecc4	-0.09273675
71	0xbdb9416f	-0.090456836
72	0xbe203af8	-0.15647495
73	0xbe4b8039	-0.19873132
74	0xbdfdd703	-0.12394526
75	0xbdb28316	-0.08716409
76	0xbdafd0c1	-0.085847385
77	0xbd575e34	-0.052580073
78	0xbdb49ad2	-0.08818592
79	0xbde4258e	-0.111399755
80	0xbdd1bff2	-0.10241689
81	0x3c10b5e1	0.008832426
82	0xbd8b1608	-0.067913115
83	0xbce6d892	-0.02817944
84	0x3d70609e	0.05868589
85	0xbd839073	-0.06424036
86	0x3cd5210b	0.026016733
87	0x3cb5b32a	0.022180159
88	0xbde3322d	-0.11093555
89	0xbc875d9b	-0.016524127
90	0x3c7349ab	0.014849107
91	0x3d9d406b	0.076783024
92	0x3d6049e6	0.054757975
93	0xbd1aeb7f	-0.037822243
94	0x3d917ab3	0.07103481
95	0x3d5a5a71	0.053308908
96	0xbd810cd8	-0.06301278
97	0x3dba8bb3	0.09108677
98	0x3d8d37c6	0.068954036
99	0xbdac381a	-0.08409138
100	0xbcfa7584	-0.030573614
101	0xbd1bf01c	-0.038070783
102	0xbca4eb63	-0.020131772
103	0xbd31659c	-0.043309793
104	0xbdb9f200	-0.09079361
105	0xbcf7b3f2	-0.030237172
106	0xbd1ad4ed	-0.037800718
107	0xbe0c7d63	-0.13719706
108	0x3c6a2f36	0.0142934825
109	0xbd70a8ea	-0.05875484
110	0xbde6754e	-0.11252843
111	0xbc42244d	-0.011849475
112	0xbd689acf	-0.056788262
113	0xbdc54e14	-0.09634033
114	0xbd4dbe4a	-0.050230302
115	0xbdb81a35	-0.089893736
116	0xbdf82776	-0.121169016
117	0x3d32d854	0.043663338
118	0x3c7f343e	0.01557642
119	0x3d4c5430	0.049884975
120	0x3b07044a	0.0020601922
121	0xbcf27f33	-0.029601669
122	0xbccd7b36	-0.025083166
123	0xbcad65a0	-0.021166623
124	0x3bbed65b	0.005823893
125	0x3cdfd680	0.027323961
126	0xbcb474bf	-0.022028325
127	0x3ca7a914	0.020466365
128	0xbd0ec58f	-0.034856375
129	0xbd291756	-0.04128202
130	0x3d5a48f4	0.05329223
131	0x3d0fb657	0.035086002
132	0xbda1a20c	-0.07892236
133	0xbcd197c5	-0.025585065
134	0xbd0a67f0	-0.03379053
135	0x3cb456d7	0.022014065
136	0x3cb45793	0.022014415
137	0x3d1e3dd2	0.038633175
138	0x3bfed346	0.0077766506
139	0x3ca642a2	0.020295445
140	0x3cdcc31d	0.026948506
141	0x3d21748e	0.039417796
142	0x3cb51f7a	0.022109736
143	0x3d9b106f	0.07571494
144	0x3b1c80df	0.0023880524
145	0x3db53f70	0.0884999
146	0x3b18bdb6	0.0023306436
147	0xbccf205b	-0.025283983
148	0x3dab4f31	0.08364714
149	0x3c84821e	0.016175326
150	0xbcd1922d	-0.025582397
151	0x3d6f8ce6	0.05848398
152	0xbca34dcd	-0.01993456
153	0x3c7f5bca	0.015585849
154	0xbcacded0	-0.021102339
155	0xbb6ffdc6	-0.0036619767
156	0xbcde3042	-0.02712262
157	0xbdb2b886	-0.08726601
158	0xbdbb8f7f	-0.09158229
159	0xbdb67071	-0.08908165
160	0xbd9bb5c2	-0.07603027
161	0xbd9cd99f	-0.076586954
162	0x3d4e8d43	0.050427686
163	0x3db197d3	0.08671536
164	0x3ccbc01d	0.02487188
165	0x3dad2be2	0.084556356
166	0x3db712e6	0.089391515
167	0x3d621a11	0.05520064
168	0xbd0e87f4	-0.034797624
169	0x3dcf7684	0.10130027
170	0x3d1cc266	0.03827133
171	0x3d042238	0.032259196
172	0x3ca00680	0.01953435
173	0x3d880a09	0.06642539
174	0xbcd57722	-0.026057784
175	0x3d4a7aa5	0.04943337
176	0x3d4f7503	0.0506487
177	0x3cab8e7e	0.020941969
178	0x3d5edbbe	0.05440878
179	0x3d28af4c	0.0411828
180	0x3beab1d7	0.0071623134
181	0x3d40d8d4	0.047081783
182	0x3d1ad755	0.037803013
183	0xbc4e7415	-0.012600918
184	0x3cec9ea4	0.02888424
185	0xbcb6b31c	-0.022302203
186	0xbd8bde00	-0.068294525
187	0xbd22cf2a	-0.03974835
188	0xbd2de695	-0.04245623
189	0xbd1338b6	-0.035942756
190	0x3cb26d45	0.02178062
191	0x3ca4d2b7	0.020120008
192	0xbd39cf46	-0.045363687
193	0xbcc9ae5b	-0.024619272
194	0x3d031933	0.032006454
195	0xbd9f84f2	-0.07789029
196	0xbd7b93a4	-0.061420098
197	0xbcb632d8	-0.022241041
198	0xbd871f08	-0.065977156
199	0xbdcb84ca	-0.09937437
200	0xbb1a6898	-0.0023560878
201	0xbdd7a5bc	-0.10529658
202	0xbe17d9c8	-0.1482917
203	0xbdec6c0c	-0.11544046
204	0xbc842007	-0.016128553
205	0xbdde6512	-0.108591214
206	0xbdb0cebc	-0.086331815
207	0xbd7cb1e7	-0.0616931
208	0xbda5789a	-0.080796435
209	0xbd5553a9	-0.052081738
210	0xbd950cbb	-0.07277819
211	0xbdaef0aa	-0.08541997
212	0xbd93194d	-0.0718256
213	0xbd9cde48	-0.07659584
214	0xbdc664f3	-0.09687223
215	0xbd5548aa	-0.05207125
216	0xbc2d63a1	-0.010582835
217	0x3c3c5e63	0.011497113
218	0xbd9af2e3	-0.07565858
219	0x3e085270	0.13312697
220	0xbd166c73	-0.03672452
221	0x3cf79a90	0.030225068
222	0xbd0972ad	-0.03355663
223	0xbbd951ef	-0.0066320817
224	0x3d7bc84b	0.06147031
225	0xbe2e515f	-0.17023228
226	0xbe14476e	-0.14480373
227	0xbdbe0528	-0.09278327
228	0xbdd74195	-0.10510556
229	0xbdaaf8f3	-0.083482645
230	0xbd931ddd	-0.0718343
231	0xbe65710a	-0.22406402
232	0xbdde5043	-0.108551525
233	0xbe2629d6	-0.16226897
234	0xbd9ccbf1	-0.07656086
235	0xbda9b343	-0.082861446
236	0xbd90401d	-0.07043479
237	0xbcf75e00	-0.03019619
238	0x3bee911c	0.007280482
239	0xbd86f319	-0.06589336
240	0xbd3940ed	-0.045227934
241	0x3cb9a1b4	0.022660114
242	0xbd91f7c3	-0.07127335
243	0x3ce2cb9c	0.02768498
244	0x3c6218a2	0.013799818
245	0x3e0ea463	0.13929896
246	0x3d62f884	0.055412784
247	0x3c03f2b2	0.008053469
248	0x3e2c82fa	0.16846839
249	0x3d64326b	0.055712145
250	0x3d4045ce	0.04694157
251	0x3dd6fa50	0.10496962
252	0xbe1adf90	-0.15124345
253	0xbdcbbd3c	-0.09948203
254	0xbe069286	-0.13141832
255	0xbde1f6cb	-0.110334

pim_conv5.bias f4 [64]
0	0xbb541500	-0.003236115
1	0xbd135645	-0.035970945
2	0x3b8c4e74	0.0042818133
3	0x3d047c12	0.032344885
4	0x3c0fb7c3	0.00877184
5	0xbc8a7d60	-0.016905487
6	0xbc929fd1	-0.017898472
7	0xbcbc3f82	-0.022979502
8	0xbcf93fcc	-0.030425929
9	0xbba101b1	-0.0049135317
10	0x3ca6bf2b	0.020354828
11	0xbcf4ea48	-0.02989687
12	0xbcae3204	-0.021264084
13	0xbcbfbc25	-0.023405144
14	0xba3d26ae	-0.00072155416
15	0xbc493f17	-0.012283108
16	0x3bac1064	0.0052509774
17	0x3d186d3b	0.037213545
18	0xbd1dca18	-0.03852281
19	0xbd1a7af4	-0.037714913
20	0x3c8f9ef3	0.017531848
21	0xbd158c64	-0.03651084
22	0xbb8b8384	-0.0042576212
23	0xbd1fc5e6	-0.03900709
24	0xbd145b1c	-0.0362197
25	0xbca01a62	-0.01954383
26	0xbbedcab9	-0.0072568324
27	0x3d038e50	0.03211814
28	0xbcb2b8bc	-0.021816604
29	0x3bc4b28c	0.0060027298
30	0x3c3a9afb	0.011389489
31	0x3b981f04	0.004642369
32	0x3d003565	0.03130092
33	0xbcfe9a9f	-0.031079588
34	0x3d1207b5	0.03565188
35	0x3cc6d171	0.024269791
36	0x3bc7f40c	0.0061020907
37	0xbd049c5d	-0.032375682
38	0xbcf0316a	-0.029320437
39	0x3cb9abcf	0.022664933
40	0x3c0d8da1	0.008639724
41	0xba552c86	-0.00081319397
42	0x3b95e0fe	0.0045739403
43	0xbb215cf5	-0.0024622057
44	0x3bc16298	0.005901646
45	0xbccfb60c	-0.025355361
46	0x3c198bc7	0.009371704
47	0x3c493334	0.012280274
48	0xbd2e1ba1	-0.042506818
49	0x3d24de27	0.040250923
50	0x3bfb8bca	0.0076765763
51	0xbd288102	-0.041138656
52	0xbba24db2	-0.0049531097
53	0xbb8a82cc	-0.004227018
54	0x3d0b8338	0.034060687
55	0xbcc04114	-0.023468532
56	0x3d0985ff	0.033575054
57	0xbca2f28a	-0.019891042
58	0x3ccc65c4	0.02495087
59	0xba0cd2f6	-0.0005372012
60	0x3ae6202f	0.0017557199
61	0xbb8b7fcd	-0.0042571784
62	0x3b8bc387	0.004265252
63	0xbcfe8fba	-0.031074394

pim_conv6.weight f4 [64, 64, 3, 3]
0	0xbdcc2bb2	-0.09969272
1	0xbdb4235d	-0.087958075
2	0xbd37c38a	-0.044864215
3	0xbddfc754	-0.10926691
4	0xbe23974b	-0.15975682
5	0xbdab6475	-0.0836877
6	0x3c4484e1	0.011994571
7	0x3ba34d01	0.004983545
8	0x3c88b0b0	0.016685814
9	0xbe40b23b	-0.1881799
10	0xbdb55828	-0.08854705
11	0xbd04a255	-0.032381374
12	0xbd02b98c	-0.031915233
13	0xbd5769e3	-0.052591216
14	0xbd41ac97	-0.047283735
15	0xbd47a3c5	-0.048740167
16	0xbd029c03	-0.031887066
17	0xbd80d931	-0.06291426
18	0x3d113bbe	0.035457365
19	0x3cdcf159	0.026970552
20	0xbcd80d68	-0.02637358
21	0x3c3eda11	0.011648671
22	0xbdf080ee	-0.117433414
23	0x3d3a2bcf	0.045451935
24	0x3d504062	0.05084265
25	0x3c39278a	0.011300931
26	0x3c97c9c4	0.018528827
27	0xbd6b64b9	-0.057469103
28	0xbdcd09cc	-0.10011634
29	0xbd10cc0f	-0.035350855
30	0xbdce6813	-0.10078444
31	0xbe629987	-0.22128879
32	0xbe1aeeaf	-0.15130113
33	0xbd4b45de	-0.049627177
34	0xbdef149e	-0.11673854
35	0xbdcb3ee8	-0.09924108
36	0xbcfb3666	-0.030665588
37	0xbca11c94	-0.019666947
38	0x3cd9dd5d	0.026594812
39	0xbc9ae07a	-0.018905867
40	0xbd7bf393	-0.061511587
41	0xbb8ef94d	-0.004363215
42	0xbc520ea8	-0.012820877
43	0xbd358c40	-0.044323206
44	0xbd2414fa	-0.040059067
45	0xbc727535	-0.014798452
46	0xbc262a51	-0.010141925
47	0x3d006c6a	0.03135339
48	0xbd329dfb	-0.043607693
49	0xbd269817	-0.040672388
50	0x3bc57f95	0.006027172
51	0xbd937f96	-0.072020695
52	0xbda4622a	-0.08026536
53	0xbd629960	-0.05532205
54	0x3d9d2c12	0.07674421
55	0x3bbde656	0.0057952804
56	0x3d82e720	0.0639174
57	0xbd01128a	-0.03151182
58	0xbca499d6	-0.020092886
59	0x3d220a13	0.03956039
60	0xbc2c7a44	-0.010527197
61	0x3d40cff8	0.047073334
62	0x3ca7cef2	0.020484421
63	0xbdf91be9	-0.121635266
64	0xbd98903f	-0.07449388
65	0xbd331f70	-0.043731153
66	0xbd8ff7b7	-0.0702967
67	0xbd201103	-0.039078724
68	0xbd4608a7	-0.048348095
69	0xbdb67605	-0.08909229
70	0xbd54ea33	-0.051981162
71	0xbcd30dc3	-0.025763398
72	0xbd1135ba	-0.03545163
73	0xbce2af2c	-0.02767142
74	0xbbc0a905	-0.0058795237
75	0x3ce51c95	0.02796773
76	0x3c6bfa03	0.014402869
77	0x3d05faea	0.032709993
78	0xbd092e98	-0.0334917
79	0x3d7a1e3d	0.061063994
80	0x3d217e7e	0.039427273
81	0xbcd535b9	-0.026026594
82	0xbd0cd738	-0.034384936
83	0x3b4c93fe	0.003121614
84	0xbd35d06b	-0.044388216
85	0xbd7e48e5	-0.062081236
86	0xbcf3dfed	-0.029769862
87	0xbbdd5a37	-0.006755139
88	0xbd354b90	-0.044261515
89	0x3c88033d	0.016603107
90	0xbda915e8	-0.082561314
91	0xbda1a888	-0.07893473
92	0xbc6b8918	-0.014375947
93	0xbdd577c2	-0.104232326
94	0xbe132cb8	-0.14372528
95	0xbdd9d957	-0.106371574
96	0xbdd20394	-0.10254589
97	0xbda382b1	-0.07983912
98	0x3c4e7baa	0.012602726
99	0x3dbbbc72	0.091668025
100	0x3e1ffdb9	0.15624131
101	0x3ddd004e	0.10791074
102	0x3e2a1c72	0.16612414
103	0x3ddcfda8	0.107905686
104	0x3de52916	0.11189477
105	0x3dac64b1	0.08417643
106	0x3e08d35f	0.13361882
107	0x3de9152b	0.113809906
108	0x3d9642bd	0.07336948
109	0x3d82a830	0.063797355
110	0x3c51e098	0.012809895
111	0x3d104ca7	0.03522935
112	0x3ba76da9	0.005109508
113	0x3cf2e103	0.02964831
114	0x3cf41c5a	0.029798675
115	0xbc8ad8a4	-0.016949005
116	0x3d5a0c4c	0.053234383
117	0xbc8738f3	-0.016506648
118	0x3d2a7038	0.041610926
119	0x3bdc354d	0.006720221
120	0xbced903b	-0.028999439
121	0xbc398ab7	-0.011324576
122	0xbc549586	-0.012975102
123	0x3a856d76	0.0010179717
124	0xbd0560b9	-0.032562945
125	0xbc5daea3	-0.013530406
126	0xbd2b01bd	-0.041749705
127	0xbd9097f1	-0.070602305
128	0xbd53351a	-0.051564313
129	0x3c9372ce	0.01799908
130	0xbda64232	-0.081180945
131	0xbce3367c	-0.027735941
132	0x3cdaa606	0.026690494
133	0xbcf0cbb8	-0.029394016
134	0xbc739758	-0.014867626
135	0x3c8deebc	0.017325751
136	0xbc80e7d2	-0.01573554
137	0x3d497b39	0.04918978
138	0xbc236cbe	-0.009974657
139	0xbd1cb0c3	-0.03825451
140	0x3ca1df14	0.019759692
141	0xbc660f73	-0.014041769
142	0xbd4653ba	-0.04841969
143	0xbd43c01a	-0.047790624
144	0xbd228fce	-0.039687924
145	0xbdd92f95	-0.10604779
146	0xbc38e44f	-0.011284902
147	0xbd12f03b	-0.035873633
148	0xbbfed5c6	-0.0077769486
149	0x3c2252ec	0.009907465
150	0xbd40f34a	-0.04710702
151	0x3b6f5df6	0.003652451
152	0x3c5eb0f1	0.013591991
153	0xbcd0b9c3	-0.025479203
154	0xbce7d35b	-0.028299024
155	0x3d2c7047	0.042099264
156	0x3c420bf1	0.011843667
157	0xbd18c00d	-0.03729253
158	0x3d706976	0.058694325
159	0x3c85097a	0.01623987
160	0xbb3eb868	-0.0029101614
161	0x3d8b3ea8	0.0679906
162	0xbce214e0	-0.027597845
163	0xbc336f5f	-0.010951846
164	0x3d6c11a0	0.057633996
165	0x3d0f1e38	0.03494093
166	0x3c602fac	0.013683241
167	0x3d30d86b	0.043175142
168	0x3c5fa25a	0.0136495475
169	0xbd471f8f	-0.04861408
170	0x3bf845a7	0.0075766626
171	0xbcaaebb1	-0.02086434
172	0xbd903ab0	-0.07042444
173	0xbd3cb5fb	-0.046071988
174	0xbdaefc21	-0.085441835
175	0xbcb8e342	-0.022569302
176	0xbd0d17e3	-0.03444661
177	0x3ca558c2	0.020183925
178	0xbd290da4	-0.041272774
179	0xbd2890c8	-0.0411537
180	0x3c174ebe	0.009235082
181	0xbce6ff29	-0.028197842
182	0xbcd6c160	-0.026215255
183	0xbd14d4fa	-0.036335923
184	0xbcb5a3c6	-0.02217282
185	0x3ca53f2e	0.020171728
186	0xbd806984	-0.062701255
187	0x3c9445fb	0.018099776
188	0xbc12d347	-0.008961505
189	0xbd8c6e06	-0.06856923
190	0xbe06cf01	-0.13164903
191	0xbdc94fc5	-0.09829668
192	0xbc98fd7f	-0.018675564
193	0xbd32e1be	-0.043672316
194	0xbd8751e3	-0.066074155
195	0xbcab866b	-0.020938119
196	0x3becf903	0.007231833
197	0xbc29a211	-0.010353581
198	0x3d79f439	0.061023924
199	0x3d45c817	0.048286524
200	0x3cbc8063	0.023010438
201	0x3da30616	0.07960145
202	0x3d932150	0.07184088
203	0x3d8f10c0	0.06985617
204	0x3d99c7d7	0.075088196
205	0x3d7f4dd5	0.062330086
206	0x3d1c55a7	0.038167622
207	0xbbb39c74	-0.005481297
208	0xbcf2183a	-0.029552568
209	0xbc8abbf9	-0.016935335
210	0x3bf1e2df	0.0073817815
211	0x3d85930e	0.06522189
212	0x3cc49633	0.023997402
213	0x3c1096e0	0.008825034
214	0x3b799f67	0.0038089396
215	0x3c29deab	0.01036803
216	0xbd3ed96a	-0.04659406
217	0xbd84d0a6	-0.06485109
218	0xbc057a10	-0.008146778
219	0xbce5f7b5	-0.028072217
220	0xbd2efbe8	-0.042720705
221	0xbd5f7e46	-0.054563783
222	0xbd1d51b5	-0.038408
223	0xbb23a216	-0.0024968437
224	0xbcfc0b11	-0.030766996
225	0xbdb8a70f	-0.09016239
226	0x3d226701	0.039649013
227	0xbd19a50c	-0.037510917
228	0xbd5459de	-0.051843517
229	0xbcaf2a8a	-0.021382589
230	0xbab96a61	-0.0014146083
231	0xbcca2156	-0.024674099
232	0xbc96e755	-0.018420855
233	0x3cfe7161	0.031059923
234	0x3cf85f3e	0.030318853
235	0x3d3d2c07	0.046184566
236	0xbb4702fc	-0.003036677
237	0x3d6f8ede	0.05848586
238	0xbcc0a18b	-0.02351453
239	0x3c2a4087	0.010391361
240	0x3d3609a0	0.044442773
241	0x3d9a14ef	0.07523524
242	0x3bebf48b	0.0072007827
243	0xbdda6a6c	-0.106648296
244	0xbd760a6d	-0.060068537
245	0xbd0762b1	-0.033053104
246	0x3c44d473	0.0120135425
247	0xbdd29cdb	-0.10283824
248	0x3b4d8132	0.0031357524
249	0xbdc183c7	-0.09448963
250	0x39b7df89	0.00035071027
251	0xbca85d77	-0.02055238
252	0xbc108c9d	-0.008822587
253	0xbcc5a07c	-0.024124376
254	0xbc0d0465	-0.008607005
255	0x3cc482e2	0.023988191
