pre_trained_models/UWCNN_epoch50.pth (torch, 166554 bytes, 20 tensors)

conv2d_dehaze1.weight f4 [16, 3, 3, 3]
0	0xbe8cd225	-0.27504078
1	0xbe56b44f	-0.2096722
2	0x3c39d23d	0.011341629
3	0xbe5f99bf	-0.21835993
4	0x3e18a6f2	0.14907435
5	0xbd62f176	-0.055406056
6	0x3d361e61	0.044462565
7	0xbd4a14cd	-0.049336243
8	0x3e4764bd	0.19472022
9	0x3df0f7da	0.11766024
10	0xbb2d7e2e	-0.0026472914
11	0x3de6e970	0.112749934
12	0xbdd36070	-0.10321128
13	0x3e02c92e	0.12772056
14	0x3e604bc3	0.21903901
15	0xbd2061e7	-0.039155867
16	0x3e68edb9	0.22746934
17	0xbd35edc3	-0.0444162
18	0x3cde93cb	0.027170083
19	0xbe4efcc6	-0.20213613
20	0x3c8ad7d3	0.016948616
21	0xbe54b3d1	-0.2077172
22	0x3da54676	0.0807008
23	0xbd88c128	-0.06677467
24	0xbe09c2ed	-0.13453265
25	0x3e0a40b6	0.13501248
26	0xbddca21e	-0.10773109
27	0xbe735d1a	-0.23765984
28	0xbd971459	-0.07376928
29	0x3cd1a86f	0.02559301
30	0xbdecca1d	-0.115619875
31	0x3da18418	0.07886523
32	0x3bb90803	0.005646707
33	0x3dbdeb19	0.09273357
34	0x3c967696	0.018367093
35	0x3e39ee15	0.18157227
36	0xbe8ccb56	-0.27498883
37	0x3e2c1b98	0.16807401
38	0x3d936bf5	0.071983255
39	0xbe008aeb	-0.12552993
40	0x3b114115	0.0022164036
41	0xbc0cf64d	-0.008603645
42	0xbe3eafed	-0.18621798
43	0x3e330a91	0.174845
44	0x3e35ce6f	0.1775453
45	0xbd7b59cb	-0.06136493
46	0x3e3b68dd	0.18301721
47	0x3e2c0ee2	0.16802552
48	0x3dc3aca9	0.09554417
49	0xbe3c6fd1	-0.1840203
50	0xbdc1d52a	-0.09464486
51	0x3c4a75ae	0.012357159
52	0x3d19e66e	0.03757327
53	0xbe2f4ac0	-0.17118359
54	0xbe1390f8	-0.1441077
55	0x3df6a665	0.12043456
56	0x3e04343a	0.12910548
57	0x3e208cf4	0.1567877
58	0xbe50a597	-0.20375668
59	0xbdf1c2e7	-0.11804753
60	0xbded7850	-0.115952134
61	0xbc6d89fd	-0.014498231
62	0xbd9ebf45	-0.077513255
63	0x3c3e464f	0.011613443
64	0x3d547199	0.051866148
65	0x3e0d7bd7	0.13816772
66	0x3dc267bd	0.09492443
67	0xbda9a3f4	-0.08283225
68	0xbe073939	-0.13205422
69	0x3df31a30	0.11870229
70	0xbdb8bf90	-0.09020913
71	0xbe401b5b	-0.18760435
72	0xbe32c68e	-0.17458555
73	0xbe80e9e0	-0.25178432
74	0xbdc80126	-0.09765844
75	0x3d4f9731	0.050681297
76	0x3c985a68	0.018597797
77	0x3da2c529	0.079477616
78	0xbd9269f8	-0.07149118
79	0x3dd750a7	0.1051343
80	0x3e0caaa0	0.13736963
81	0x3d3a6a87	0.04551175
82	0xbe77f510	-0.24214578
83	0xbe767ea7	-0.24071752
84	0x3e2fa2e8	0.17151988
85	0x3daf2f16	0.08553903
86	0x3d8369a8	0.06416637
87	0xbd8e7ce0	-0.06957412
88	0x3e5d0ac4	0.21586138
89	0x3e06c959	0.13162746
90	0x3d96fbd7	0.073722534
91	0x3dda0c98	0.10646933
92	0x3c1530ad	0.0091058435
93	0xbe151001	-0.14556886
94	0xbe18d053	-0.1492322
95	0xbe3c83ff	-0.18409728
96	0xbe0b8eba	-0.13628665
97	0x3d948b30	0.072531104
98	0x3e0e0c5f	0.13871907
99	0x3d2a7a84	0.041620746
100	0xbda8378a	-0.08213718
101	0xbde61716	-0.11234872
102	0x3e4d419b	0.20044558
103	0xbdb1e89f	-0.08686947
104	0x3dcdad9f	0.10042881
105	0x3da996ce	0.08280717
106	0x3dd1fe8b	0.10253628
107	0x3e02c8d5	0.12771924
108	0xbe994f83	-0.29943475
109	0x3de1704e	0.110077485
110	0x3e266f2f	0.1625335
111	0xbe99d57a	-0.30045682
112	0x3d888ce4	0.06667498
113	0xbd854ec7	-0.06509166
114	0xbd084461	-0.033268336
115	0xbe06fdd8	-0.13182771
116	0xbe2e888d	-0.17044277
117	0xbddf5324	-0.1090453
118	0x3ccd67e9	0.025073962
119	0xbde51746	-0.1118608
120	0xbd0d99e4	-0.03457059
121	0xbd9320b1	-0.0718397
122	0x3db7bf4b	0.08972033
123	0x3cc4c2e8	0.02401872
124	0x3d923fa0	0.07141042
125	0xbc4ebbca	-0.012618015
126	0xbd2e3958	-0.042535156
127	0x3d0f409b	0.034973722
128	0x3d095cba	0.033535697
129	0xbd041353	-0.03224499
130	0x3dd3feee	0.10351358
131	0xbbdfb203	-0.0068266406
132	0xbe5eb52e	-0.21748802
133	0x3d78f4c7	0.060780313
134	0xbe17acd9	-0.1481203
135	0xbe630bc2	-0.22172454
136	0xbe30c245	-0.17261608
137	0xbe0fa3c0	-0.1402731
138	0x3867edc7	5.529614e-05
139	0x3db15468	0.08658677
140	0xbbe8cad5	-0.0071042576
141	0xbe5d9cd1	-0.21641852
142	0x3af18ea1	0.0018429348
143	0xbe74aa0d	-0.23892994
144	0x3da05fe1	0.078307875
145	0x3e17797a	0.14792433
146	0x3de633d5	0.11240355
147	0x3e5991ff	0.212471
148	0x3e79d51f	0.24397705
149	0x3dfc689e	0.12324642
150	0xbe0616dc	-0.13094658
151	0xbd5f42b4	-0.054506972
152	0xbcd9b78e	-0.026576784
153	0xbda346f3	-0.07972517
154	0x3c859a4e	0.01630893
155	0xbe45e6de	-0.1932635
156	0x3d417295	0.047228415
157	0x3d15c1ac	0.036561653
158	0xbd38e4de	-0.04514014
159	0xbe440643	-0.19143014
160	0x3c0d1822	0.008611711
161	0x3d9275c4	0.07151368
162	0xbd9c5bba	-0.07634683
163	0xbba3a971	-0.004994564
164	0xbe35c1f2	-0.17749766
165	0x3e37ddda	0.17955723
166	0x3dc8b970	0.098009944
167	0xbe2c924f	-0.16852687
168	0x3cba7184	0.022759207
169	0x3df2ffdb	0.11865207
170	0xbcee2efd	-0.02907514
171	0xbc0ed99f	-0.008718877
172	0x3d832e25	0.06405286
173	0xbd8cea63	-0.06880643
174	0x3e26abbb	0.16276447
175	0x3e0e8036	0.13916096
176	0x3e1cb66a	0.1530396
177	0xbe38d19c	-0.1804871
178	0x3ce444d3	0.02786485
179	0x3d185098	0.037186235
180	0xbe779ab0	-0.24180102
181	0x3d97bd82	0.074091926
182	0xbd0ea37f	-0.03482389
183	0xbe14af1b	-0.14519922
184	0x3dc9fba7	0.09862452
185	0x3e4353e0	0.19074965
186	0xbe0f33d9	-0.13984622
187	0x3c1a93a7	0.009434617
188	0x3d438210	0.04773146
189	0x3e4d734c	0.20063514
190	0xbd92b11f	-0.071626894
191	0xbda73aa4	-0.08165482
192	0x3ddeb3bd	0.10874126
193	0x3d8adbee	0.067802295
194	0xbe61635f	-0.22010563
195	0xbc8798e2	-0.016552392
196	0xbda7e7c8	-0.08198506
197	0xbdcca4ad	-0.09992347
198	0x3e40aa0a	0.18814865
199	0x3dd80b9a	0.10549088
200	0x3d225716	0.039633833
201	0x3e122b34	0.14274293
202	0x3de8df82	0.11370756
203	0xbd57a947	-0.05265167
204	0xbdb0ccec	-0.08632836
205	0xbae025e3	-0.0017101135
206	0x3d5fbb8c	0.054622218
207	0x3d2b1d3e	0.041775934
208	0xbe27b89d	-0.16379018
209	0xbe5ce33f	-0.21571063
210	0x3e0c3603	0.13692479
211	0xbcb2e3d4	-0.021837153
212	0xbd02c141	-0.031922583
213	0x3e33a4cd	0.17543335
214	0xbdad92a8	-0.08475238
215	0xbdf202e9	-0.11816961
216	0x3e1a6dd2	0.15080956
217	0xbc8c52e9	-0.017129378
218	0x3d8809e5	0.06642512
219	0xbe096c3e	-0.13420197
220	0x3d129df8	0.035795182
221	0x3d7f972b	0.062400024
222	0xbdffbebb	-0.12487551
223	0x3dc5b1d5	0.096530594
224	0xbd351e88	-0.04421857
225	0x3e07b89f	0.13254021
226	0x3cb58d50	0.02216211
227	0xbd67a84d	-0.05655699
228	0xbdf2f92b	-0.11863931
229	0x3e216e83	0.15764813
230	0x3dc73df3	0.09728613
231	0xbe6578fa	-0.2240943
232	0xbc7decfc	-0.015498396
233	0xbe0bb7e8	-0.13644373
234	0x3e54ee6b	0.20794074
235	0xbd1fb7de	-0.03899371
236	0xbe02f3ab	-0.12788264
237	0xbe169f81	-0.14709283
238	0x3d6a4ce4	0.057202235
239	0xbdcfb544	-0.101419955
240	0xbe6d61fe	-0.23181912
241	0x3d82088a	0.06349285
242	0x3e159ac4	0.1460982
243	0xbb0f4c69	-0.0021865612
244	0xbe267814	-0.16256744
245	0xbda768b5	-0.08174268
246	0xbdaef519	-0.085428424
247	0xbcbac59e	-0.02279931
248	0x3e0cb837	0.13742147
249	0xbd57589e	-0.052574746
250	0xbe2134dd	-0.15742822
251	0xbc89bf5a	-0.016814876
252	0xbd926316	-0.071478054
253	0xbe10a5e5	-0.14125784
254	0x3e3ab2a3	0.18232207
255	0x3e3bc16e	0.18335506

conv2d_dehaze1.bias f4 [16]
0	0x3dbe4347	0.09290176
1	0x3d24af34	0.04020615
2	0x3c579c55	0.013159831
3	0xbdeecbee	-0.1165999
4	0x3d8cc0f6	0.06872742
5	0xbca3c80f	-0.019992856
6	0x3b54d8e1	0.0032477903
7	0x3cddfbdd	0.027097637
8	0x3dbe2fec	0.09286484
9	0x3dd7ee1e	0.10543464
10	0xbe534dd2	-0.20635155
11	0x3c7b0f12	0.015323417
12	0xbdc91aea	-0.098195866
13	0x3e30f047	0.17279159
14	0xbe4ed777	-0.20199381
15	0xb9a54325	-0.0003152128

conv2d_dehaze2.weight f4 [16, 16, 3, 3]
0	0x3b318e3f	0.0027092842
1	0x3cbd26ed	0.02308985
2	0x3cfa4565	0.030550668
3	0xbc90f0b1	-0.017692896
4	0x3e3004c0	0.17189312
5	0x3d42ff91	0.04760701
6	0xbd28b211	-0.041185442
7	0xbcddf3f7	-0.02709387
8	0xbe18a703	-0.1490746
9	0x3b060201	0.0020447972
10	0x3db47c11	0.08812726
11	0xbe13bce8	-0.14427531
12	0x3dac6353	0.08417382
13	0x3db2c2a4	0.08728531
14	0xbe109d4d	-0.14122505
15	0xbb9db25b	-0.0048125214
16	0xbd4a307c	-0.049362645
17	0xbde3f159	-0.11130018
18	0xbd02cb3d	-0.031932104
19	0xbd0abddf	-0.03387248
20	0xbdcb8d4a	-0.09939058
21	0x3d80a518	0.06281489
22	0x3d9201aa	0.07129224
23	0xbd24b7d2	-0.040214367
24	0xbd77f19e	-0.06053316
25	0x3d3103fb	0.043216687
26	0xbde7e598	-0.113230884
27	0x3ced3123	0.028954094
28	0xbdb7f11b	-0.08981534
29	0xbda160d6	-0.07879798
30	0x3d20e261	0.03927839
31	0xbe096b0f	-0.13419746
32	0xbde53add	-0.11192868
33	0xbd006602	-0.031347282
34	0xbdcf3afa	-0.10118671
35	0xbe24892b	-0.1606795
36	0x3dc7b19d	0.09750674
37	0x3e48b633	0.19600753
38	0xbd754cf0	-0.059887826
39	0xbc00fb76	-0.007872453
40	0x3c70bff7	0.0146942055
41	0x3d67887e	0.056526653
42	0x3da883b2	0.08228244
43	0x3d9033a6	0.07041101
44	0xbe271b06	-0.16318902
45	0x3d09fbfc	0.033687577
46	0x3d527e2c	0.051389858
47	0xbd95cd33	-0.07314529
48	0xbd06c224	-0.03289999
49	0x3d172f31	0.03691024
50	0xbdb3df10	-0.0878278
51	0xbc6141fb	-0.013748641
52	0xbbe8b13a	-0.007101205
53	0x3bdb34fa	0.006689665
54	0xbd8a908f	-0.067658536
55	0x3d75a44e	0.059971146
56	0xbc9e8e75	-0.019355038
57	0xbd2d4966	-0.042306326
58	0xbbb77766	-0.00559895
59	0xbe020741	-0.1269808
60	0xbc122770	-0.008920535
61	0x3da3a4bc	0.07990405
62	0xbdd5d951	-0.104418404
63	0xbdb12f56	-0.08651607
64	0x3e561ea6	0.20910129
65	0xbe56bbc1	-0.2097006
66	0xbd293ce3	-0.04131783
67	0x3dec791d	0.11546538
68	0xbe10ec6a	-0.14152685
69	0xbe8a6f70	-0.27038145
70	0x3e39096d	0.18070002
71	0xbe37ed47	-0.17961608
72	0xbdb7b906	-0.08970837
73	0x3bdf55b8	0.0068156384
74	0xbd5eae59	-0.05436549
75	0xbcb8737c	-0.022516005
76	0x3e00e80e	0.12588522
77	0xbdd0bc16	-0.101921245
78	0xbde0f315	-0.10983864
79	0x3db19891	0.08671678
80	0xbdbfb93f	-0.09361505
81	0xbcc8e7b4	-0.024524547
82	0x3d7dda29	0.061975632
83	0xbdd036dc	-0.101667136
84	0x3d5c9b1c	0.05385886
85	0x3c47202e	0.012153668
86	0xbcadd79d	-0.021220976
87	0xbdd3e4a6	-0.103463456
88	0xbdd24ede	-0.10268949
89	0xbd415879	-0.047203515
90	0xbe3f3330	-0.1867187
91	0xbe0e4b5f	-0.1389594
92	0xbe0d87a5	-0.13821276
93	0xbc2d0547	-0.01056034
94	0x3dffecdf	0.124963515
95	0xbeadf481	-0.33975604
96	0xbd195a6c	-0.03743975
97	0xbd372e1b	-0.044721704
98	0xbec71701	-0.38884738
99	0xbec03348	-0.37539124
100	0x3e114001	0.14184572
101	0xbec54eb1	-0.385366
102	0x3e1cb1ff	0.15302275
103	0x3e44c41f	0.1921544
104	0x3e6394d3	0.2222474
105	0xbf15bd20	-0.58491707
106	0x3e2be055	0.16784795
107	0xbee93d89	-0.4555476
108	0xbdd98f07	-0.106229834
109	0xbdff894e	-0.12477361
110	0xbdcf23d7	-0.10114258
111	0xbccb4a52	-0.024815712
112	0xbd8f1cf8	-0.06987947
113	0x3b211014	0.0024576234
114	0x3d14c4e3	0.03632058
115	0xbd9af80b	-0.07566842
116	0xbdf77af6	-0.12084
117	0xbda75e02	-0.081722274
118	0x3d9738f0	0.07383907
119	0xbe7d4517	-0.24733387
120	0x3ca70841	0.020389678
121	0x3d95c0d4	0.0731217
122	0xbe30f397	-0.17280422
123	0xbda5f318	-0.08103007
124	0x3bcde3ce	0.00628326
125	0xbe0c0168	-0.13672411
126	0xbe4de5c1	-0.20107175
127	0xbe2f9848	-0.17147934
128	0xbe5d8f1f	-0.21636628
129	0xbd5064d3	-0.050877403
130	0xbe620dcc	-0.22075576
131	0xbf2e429d	-0.68070394
132	0x3e4a3f1c	0.19750637
133	0x3ea15d7b	0.31516632
134	0xbeabb3f5	-0.33535734
135	0xbd5519d4	-0.052026585
136	0xbcb3ffb2	-0.021972511
137	0x39a7a869	0.00031978198
138	0xbaa9835f	-0.0012932828
139	0xbb9b2afc	-0.0047353487
140	0x3d33b5b1	0.043874446
141	0xbd58bb03	-0.052912723
142	0x3d1f695c	0.038918838
143	0x3c0d4df4	0.0086245425
144	0x3d230848	0.03980282
145	0x3e2e3583	0.170126
146	0xbd8866e9	-0.066602536
147	0x3c9f9a3f	0.01948273
148	0x3d396588	0.045262843
149	0xbd9c6831	-0.076370604
150	0xbd30d851	-0.043175045
151	0x3d595673	0.05306096
152	0x3bea9b1e	0.0071596047
153	0xbba2d41f	-0.0049691345
154	0x3ce20d28	0.027594164
155	0x3cc197ad	0.023631895
156	0xbbd41854	-0.0064726267
157	0xbcf13704	-0.029445179
158	0xbdd14e0a	-0.10219963
159	0x3dced389	0.10098941
160	0x3e59b459	0.21260203
161	0xbe7c6722	-0.24648717
162	0xbe0137f2	-0.12618998
163	0xbd3ca0df	-0.046051856
164	0x3c87f98a	0.016598482
165	0xbd75ecbd	-0.060040224
166	0xbe1ba71a	-0.15200463
167	0x3d8fc6d5	0.07020346
168	0x3df09884	0.1174784
169	0x3d11ec84	0.03562595
170	0x3d28c124	0.04119982
171	0x3db65a66	0.08903961
172	0x3d02b03b	0.031906348
173	0xbd1ecc51	-0.03876907
174	0x3d7a021b	0.061037164
175	0xbdd36d7b	-0.10323616
176	0xbc4639ee	-0.012098772
177	0x3bd03c30	0.006354831
178	0xbd28a561	-0.041173343
179	0xbc9519c0	-0.018200755
180	0xbd94a380	-0.07257748
181	0xbe21a3be	-0.15785119
182	0xbb1ac2c0	-0.0023614615
183	0xbc6b9657	-0.0143791055
184	0xbd19a222	-0.037508138
185	0x3da8649c	0.08222315
186	0xbccc4cc8	-0.024938956
187	0x3aa61721	0.0012671688
188	0x3e21f6dc	0.15816826
189	0xbd238fe6	-0.039932154
190	0xbd503cbe	-0.05083918
191	0xbe1e7205	-0.15473182
192	0xbd456107	-0.048188236
193	0x3e09888e	0.13430998
194	0x3c1754a6	0.00923649
195	0xbcc4ecf5	-0.024038771
196	0x3da5cd29	0.08095772
197	0x3c7bf498	0.01537814
198	0x3da78b6b	0.08180889
199	0x3e20c144	0.15698725
200	0xbd5513a1	-0.052020673
201	0x3d79a62d	0.060949493
202	0x3d513141	0.051072363
203	0x3b771ff2	0.003770825
204	0xbdeeb004	-0.11654666
205	0xbc4b2e83	-0.012401226
206	0xbdbc30aa	-0.091889694
207	0x3d2c5b3b	0.04207919
208	0xbd567c70	-0.052364767
209	0xbdcb322b	-0.09921678
210	0xbd8c50df	-0.068513624
211	0x3ddc796d	0.10765348
212	0x3e06f32d	0.13178702
213	0xbd189eb8	-0.03726074
214	0xbcf4fe28	-0.029906347
215	0x3df1c669	0.11805422
216	0xbdaaec5c	-0.08345863
217	0x3dccf567	0.10007744
218	0xbe6609ac	-0.22464627
219	0xbce2c0e7	-0.027679874
220	0x3dbf618c	0.093447775
221	0xbd6246a7	-0.05524316
222	0x3a9810f8	0.0011601737
223	0x3d8eec01	0.06978608
224	0x3e4cc22b	0.19995944
225	0xbd5a650c	-0.053319022
226	0x3c01e3d5	0.007927855
227	0xbd6fab92	-0.05851323
228	0xbce0dcc6	-0.027449023
229	0xbd96bf5d	-0.073607184
230	0x3df1ec3f	0.118126385
231	0x3de0dd23	0.109796785
232	0x3dc19870	0.09452903
233	0x3d65d998	0.056115717
234	0x3e0235d2	0.12715843
235	0x3dbf11e9	0.09329588
236	0x3dea1d7c	0.11431405
237	0x3bf7941f	0.007555499
238	0xbc66b549	-0.014081308
239	0xbdb4b232	-0.088230506
240	0xbe1abee9	-0.15111889
241	0xbc286e65	-0.010280226
242	0x3d3a366d	0.04546206
243	0xbe5c372f	-0.21505426
244	0xbbc3e586	-0.005978289
245	0xbdc53b21	-0.096304186
246	0xbd52db4b	-0.051478665
247	0x3ca5498b	0.02017667
248	0x3e014ab6	0.12626156
249	0x3c3fe44f	0.011712148
250	0xbd5bfd0e	-0.05370813
251	0x3d0c6e30	0.03428477
252	0x3e458dcc	0.19292372
253	0xbd3d1545	-0.046162862
254	0xbd85645c	-0.06513283
255	0x3d15b18a	0.036546268

conv2d_dehaze2.bias f4 [16]
0	0x3c2db14a	0.010601351
1	0xbb5a06b1	-0.0033268149
2	0xbdafeac3	-0.08589699
3	0xbd8b5e00	-0.068050385
4	0xbd9474fc	-0.072488755
5	0xbcd7f34d	-0.026361132
6	0x3ac69035	0.0015149178
7	0x3c68a433	0.014199304
8	0xbce04dbb	-0.027380815
9	0x3c12ea5b	0.0089670075
10	0x3c79f5b4	0.015256334
11	0xbd147703	-0.03624631
12	0xbcad17bd	-0.021129483
13	0x3c65bed0	0.014022544
14	0xbc0a1935	-0.008428861
15	0xbce93a63	-0.028470224

conv2d_dehaze3.weight f4 [16, 16, 3, 3]
0	0x3ea9a80a	0.33136016
1	0xbefb32e0	-0.49062252
2	0x3c56e74c	0.013116669
3	0x3e6d98d6	0.23202834
4	0x3d7a0b49	0.06104592
5	0x3e0a54ed	0.13508959
6	0x3c4bd3c9	0.01244063
7	0xbea1fd84	-0.3163873
8	0xbd531924	-0.051537648
9	0xbd91b85a	-0.071152404
10	0xbb027e28	-0.001991162
11	0xbd10a184	-0.035310283
12	0x3dcdbb1d	0.10045455
13	0xbd98a448	-0.07453209
14	0xbdb85475	-0.09000484
15	0x3ddb809f	0.10717892
16	0xbc33c2ca	-0.010971734
17	0x3cff955a	0.031199146
18	0x3db91f39	0.090391584
19	0xbd132ac9	-0.035929475
20	0xbd076921	-0.033059243
21	0x3da1f3d1	0.079078324
22	0x3c3e7532	0.011624621
23	0x3d2ec7a4	0.04267086
24	0x3d802b7c	0.06258294
25	0x3c285c16	0.010275861
26	0xbaf67514	-0.0018803203
27	0x3e58bc00	0.21165466
28	0xbc87f704	-0.016597278
29	0x3d056035	0.032562453
30	0x3e39836a	0.18116537
31	0xbce81960	-0.028332412
32	0xbda965f5	-0.082714
33	0x3e5d94d8	0.2163881
34	0xbdb135cd	-0.0865284
35	0xbcfd0e6e	-0.03089067
36	0xbda042c5	-0.07825235
37	0xbde853ac	-0.11344084
38	0x3c2c9fd3	0.010536152
39	0xbd8ec8d1	-0.069718964
40	0xbd9af171	-0.075655825
41	0x3c875950	0.01652208
42	0xbbae8e98	-0.005327057
43	0xbd4be42c	-0.04977815
44	0xbcfc26b9	-0.030780183
45	0x3e1f169a	0.15535966
46	0x3dc8bc6b	0.09801563
47	0x3dfdce37	0.12392848
48	0x3ca41c12	0.020032916
49	0xbc782fe3	-0.015148136
50	0x3ce9aa92	0.028523717
51	0x3d6943bc	0.056949362
52	0x3d3d4638	0.046209544
53	0x3d150f42	0.036391504
54	0xbcfc696d	-0.03081199
55	0xbe1f0a74	-0.15531331
56	0xbe5a08b4	-0.21292382
57	0xbbf9d493	-0.007624218
58	0xbdd19b9f	-0.102347605
59	0xbdce55a1	-0.10074926
60	0xbcad35e8	-0.021143869
61	0xbd6a92e8	-0.057269007
62	0xbe09ea27	-0.13468228
63	0x3d521485	0.0512891
64	0x3d97b7c6	0.07408099
65	0x3d4f2ce6	0.050579928
66	0x3da19aaf	0.07890832
67	0xbcb1a813	-0.02168659
68	0xbd18914d	-0.037247945
69	0x3d404a85	0.046946067
70	0xbcbcdd2d	-0.023054684
71	0xbd4b4028	-0.04962173
72	0x3db88755	0.090101875
73	0x3d1f738b	0.03892855
74	0xbd4eebd7	-0.050517883
75	0x3e28419d	0.1643128
76	0x3e362a66	0.17789611
77	0x3e069ed8	0.13146532
78	0x3c44096e	0.011965139
79	0x3d521a33	0.051294517
80	0xbd92e2b5	-0.07172147
81	0x3d946455	0.07245699
82	0x3c839105	0.016060362
83	0xbc275bf6	-0.010214796
84	0xbc0a033b	-0.008423622
85	0x3dac19a4	0.08403328
86	0xba9e2ba3	-0.0012067448
87	0x3da71a55	0.08159319
88	0x3d4a1790	0.049338877
89	0xbd2f782f	-0.042839225
90	0x3e4aad1f	0.19792603
91	0x3e8e010f	0.27735183
92	0x3e41244a	0.188615
93	0xbdbec2ed	-0.09314523
94	0xbd4b7711	-0.049674097
95	0x3d3568e7	0.044289496
96	0xbda76645	-0.08173803
97	0xbd8b8cd1	-0.06813968
98	0x3c70933e	0.014683543
99	0x3dcda0e8	0.10040456
100	0xbcf63d3e	-0.0300585
101	0x3e11623b	0.14197628
102	0x3df3d2e0	0.119054556
103	0xbd807f89	-0.062743254
104	0x3e061954	0.130956
105	0x3e5eb967	0.21750413
106	0xbc61d806	-0.013784414
107	0x3e46e453	0.19423036
108	0xbdf5a873	-0.1199502
109	0xbd74d165	-0.059770007
110	0xbcd330a7	-0.025780035
111	0xbd3fc8e9	-0.046822462
112	0xbe320c02	-0.17387393
113	0xbe0924d8	-0.13392961
114	0xbe1236db	-0.14278738
115	0xbd9dd846	-0.077072665
116	0xbdbde08b	-0.09271344
117	0xbcf807fc	-0.030277245
118	0x3d6fa940	0.05851102
119	0x3d93f078	0.072236
120	0xbc2e22a0	-0.010628372
121	0x3d5b1ffb	0.053497296
122	0xbb1b9f72	-0.002374616
123	0xbd88bb1b	-0.066763125
124	0xbcda5e65	-0.026656339
125	0x3ce5c2b5	0.028046945
126	0x3decb11a	0.11557217
127	0x3c907e6c	0.017638408
128	0xbda0ea68	-0.078572094
129	0x3e1c6d5d	0.15276094
130	0x3dbc0e8d	0.09182463
131	0x3d9624e6	0.073312566
132	0x3d8d1aca	0.06889875
133	0x3c3644b5	0.0111247795
134	0xbd9039f5	-0.070423044
135	0x3c9315ff	0.017954824
136	0xbab5da64	-0.001387429
137	0x3de008df	0.10939192
138	0x3e4c0049	0.19921984
139	0x3d4c5014	0.049881056
140	0x3da83a02	0.08214189
141	0x3dd8bdf3	0.10583105
142	0x3d895078	0.06704801
143	0x3e18e702	0.14931872
144	0xbe5bb76b	-0.21456687
145	0x3e15c20e	0.14624807
146	0xbe128e12	-0.14312008
147	0x3d10c396	0.035342775
148	0x3e7f8737	0.24953924
149	0xbe2c6f80	-0.16839409
150	0xbe875dc6	-0.2643873
151	0x3dc25549	0.09488923
152	0xbe90b81f	-0.28265473
153	0xbde2a37f	-0.11066341
154	0xbdb71d3e	-0.089411244
155	0xbde2e66c	-0.11079106
156	0xbcdf70d4	-0.02727548
157	0x3e33c533	0.17555694
158	0x3dd05902	0.10173227
159	0xbe2d9789	-0.16952337
160	0x3df261a5	0.118350305
161	0x3df2add1	0.11849559
162	0x3d86537c	0.06558892
163	0x3d8d3f59	0.06896848
164	0x3bf295b9	0.0074031022
165	0x3d3f49f6	0.046701394
166	0x3cf036fc	0.029323094
167	0x3db9bb06	0.09068875
168	0xbd8f8fd8	-0.07009858
169	0xbd8bb948	-0.06822449
170	0xbccafac3	-0.024777776
171	0xbd51c05f	-0.05120885
172	0xbcc893a2	-0.02448446
173	0x3d401418	0.046894163
174	0xbd6a5fcf	-0.057220276
175	0x3dede6de	0.116163
176	0x3bee3098	0.0072689764
177	0x3c12e434	0.008965541
178	0x3db972e8	0.0905512
179	0x3aaeff38	0.0013351208
180	0xbda0a5e4	-0.07844141
181	0xbd36c367	-0.044619944
182	0xbd6157c4	-0.05501534
183	0xbde29a61	-0.11064602
184	0xbb4f1d93	-0.003160332
185	0x3e00d0d8	0.12579668
186	0xbd86dc03	-0.06584933
187	0x3d85ca34	0.06532708
188	0x39c9bf2c	0.00038480142
189	0x3e638ab7	0.22220884
190	0xba5d616a	-0.0008444997
191	0x3e11f792	0.14254597
192	0x3db2dfca	0.087340906
193	0x3de5bf88	0.11218172
194	0xbd6cf775	-0.05785318
195	0x3e4ad9ad	0.19809599
196	0xbb705af8	-0.0036675315
197	0x3cb48c11	0.022039445
198	0xbd18326d	-0.037157465
199	0x3dbd526c	0.09244236
200	0xbd638ab3	-0.055552196
201	0xbdafba0f	-0.0858041
202	0x3db33293	0.08749881
203	0xbc341fba	-0.010993892
204	0xbe089f28	-0.13341963
205	0x3dcd6e07	0.10030752
206	0x3d0092cb	0.031389993
207	0xbdb46849	-0.08808953
208	0x3d167d2c	0.036740467
209	0x3df792d9	0.12088556
210	0xbdd7978d	-0.10526953
211	0x3df08cd1	0.117456086
212	0x3dd391e4	0.10330561
213	0xbd99de3e	-0.075130925
214	0x3d9e09c4	0.077167064
215	0xbda238fe	-0.07921027
216	0x3bb29b4a	0.005450641
217	0xbdffd181	-0.124911316
218	0x3cf05d48	0.029341355
219	0xbc1fe75c	-0.00975975
220	0xbdef5fed	-0.11688218
221	0xbdeacc28	-0.11464721
222	0x3d26a670	0.04068607
223	0xbd5ab70c	-0.053397223
224	0x38a1bfd3	7.712808e-05
225	0xbde86fdb	-0.1134946
226	0xbe218a37	-0.15775381
227	0x3caf0abb	0.021367421
228	0xbd2e5d1f	-0.042569276
229	0xbc0c0024	-0.008544955
230	0xbd6d6d76	-0.05796572
231	0xbcbc32f7	-0.02297352
232	0xbd305961	-0.04305399
233	0x3b42dc3c	0.002973332
234	0xbe9936e6	-0.29924697
235	0xbebd44b1	-0.3696647
236	0xbe91cf78	-0.284786
237	0xbdc843f6	-0.097785875
238	0xbb933914	-0.004492888
239	0xbd9b0c68	-0.07570726
240	0xbe4fe58a	-0.20302406
241	0xbd37dc26	-0.044887684
242	0xbe3a7fb7	-0.18212782
243	0xbcf317a2	-0.029674355
244	0x3a7b1c71	0.0009579128
245	0x3ebb2a0c	0.36555517
246	0xbd2584b7	-0.04040977
247	0xbd3a811b	-0.04553328
248	0x3e32cd3b	0.17461102
249	0x3d63b63c	0.055593714
250	0x3d227199	0.039659116
251	0x3ebcb2dc	0.3685521
252	0x3d06f9ee	0.032953195
253	0x3dcb2b5a	0.09920378
254	0xbca4b825	-0.020107338
255	0xba2da3fe	-0.0006623863

conv2d_dehaze3.bias f4 [16]
0	0xbd99041e	-0.074714884
1	0xbd1baded	-0.038007665
2	0xbd79f5c8	-0.06102541
3	0x3d049ecf	0.032378014
4	0xbd838f98	-0.06423873
5	0x3d5f9f27	0.05459514
6	0x3d428514	0.047490194
7	0x3d585981	0.052819733
8	0x3d6c4b76	0.057689153
9	0xbd8ddb5f	-0.06926607
10	0xbd9cdc4f	-0.07659208
11	0x3d976a36	0.07393305
12	0xbd0bc6f3	-0.03412528
13	0x3d829a7f	0.06377124
14	0x3cf91b62	0.030408565
15	0x3d07a4af	0.03311604

conv2d_dehaze4.weight f4 [16, 51, 3, 3]
0	0x3d6f7309	0.058459315
1	0x3d718e02	0.05897332
2	0xbcb7af32	-0.022422407
3	0x3dd250f6	0.10269348
4	0x3cc57731	0.024104686
5	0xbd68bfcc	-0.056823537
6	0x3d94c24f	0.07263624
7	0x3d1fc0e5	0.039002318
8	0xbda8e2cf	-0.08246385
9	0x3d993efa	0.07482715
10	0x3d33e566	0.043919943
11	0xbdca4e15	-0.09878174
12	0x3e1cd368	0.1531502
13	0xbbd708fa	-0.0065623494
14	0xbbc800b7	-0.006103601
15	0x3e06c76c	0.13162011
16	0x3c198bb7	0.0093716895
17	0xbd77f62f	-0.060537513
18	0x3c9104f8	0.017702565
19	0x3c5fe4bb	0.013665373
20	0xbd936bc9	-0.07198293
21	0xbb63cce5	-0.0034759578
22	0x3ce5e625	0.028063843
23	0xbd13ea7b	-0.03611229
24	0x3a096517	0.0005241199
25	0xbc6aa9fb	-0.014322753
26	0x3c2468fb	0.010034795
27	0x3ba9293e	0.005162387
28	0xbbc6b03b	-0.006063489
29	0xbcfdf783	-0.031001812
30	0xbb8dc747	-0.004326734
31	0xbd0c38dc	-0.034233913
32	0xbd0b9ca2	-0.034084924
33	0xbd267e29	-0.04064766
34	0xbd7657d1	-0.060142342
35	0xbcf422bc	-0.029801719
36	0xbc4c992a	-0.012487689
37	0xbd18d32e	-0.03731077
38	0xbcbc5b8f	-0.022992877
39	0x39a27a7d	0.0003099031
40	0x3c82488a	0.01590373
41	0xbc467f34	-0.0121152885
42	0xbcd1ac89	-0.025594966
43	0xbc38ed73	-0.011287081
44	0xbc6ae35d	-0.014336434
45	0xbb942ec4	-0.0045221765
46	0x3cd6b53c	0.026209466
47	0xbcf574af	-0.029962866
48	0x3d1e4152	0.038636513
49	0x3c08a486	0.008340007
50	0xbd3f3a50	-0.04668647
51	0xbcdcabf3	-0.02693746
52	0x3d38287c	0.044960484
53	0xbce6415b	-0.028107336
54	0x3d332c19	0.043743227
55	0x3c7d97b6	0.015478065
56	0xbd3cd882	-0.046104915
57	0xbc06f30f	-0.008236661
58	0x3b86d814	0.004115114
59	0xbd142719	-0.0361701
60	0xbcefc8bc	-0.029270522
61	0x3cf12eec	0.02944132
62	0xbdaab792	-0.083357945
63	0xbd41af3d	-0.04728626
64	0x3c4cf17b	0.012508745
65	0xbd581028	-0.052749783
66	0xbc9a25c7	-0.018816842
67	0x3d89aaae	0.06722008
68	0xbd97a1bf	-0.074038975
69	0xbd81692e	-0.063188896
70	0x3d58d143	0.052933943
71	0xbd211f8f	-0.039336737
72	0x3d708655	0.05872186
73	0x3e165fbe	0.1468496
74	0xbccdc383	-0.025117641
75	0xbacc4fee	-0.0015587786
76	0x3dcbe031	0.099548705
77	0xbd996c3b	-0.074913464
78	0xbd089075	-0.03334089
79	0x3dc8f429	0.09812195
80	0xbcdad05d	-0.026710683
81	0xbcb6d01e	-0.022316035
82	0x3d0af860	0.033928275
83	0xbd8a2ab3	-0.067464255
84	0xbc4eb193	-0.012615579
85	0xbcf382ec	-0.029725514
86	0xbc61d774	-0.013784278
87	0x3c1656ee	0.009175999
88	0xbcd547e6	-0.02603526
89	0xbd9bf992	-0.07615961
90	0xbb87df49	-0.0041464907
91	0x3cb22fdc	0.021751337
92	0xbcf94fbe	-0.030433532
93	0xbd6e55a7	-0.058187153
94	0x3c7b26df	0.015329092
95	0xbd9d81e3	-0.076907896
96	0xbd0172ef	-0.03160375
97	0x3bb7295c	0.005589647
98	0xbd977c2b	-0.0739673
99	0xbe8d8ef4	-0.27648127
100	0x3d7136d3	0.058890175
101	0xbd394d46	-0.04523971
102	0xbe9742f8	-0.2954328
103	0x3dda81b7	0.106692724
104	0x3ca856fd	0.020549292
105	0xbe99c0f1	-0.30030015
106	0x3da90a86	0.0825396
107	0xbd2537be	-0.040336363
108	0xbbb3bb23	-0.005484955
109	0x3c262ea9	0.010142961
110	0xbcdc3698	-0.026881501
111	0x3aac966d	0.0013167389
112	0xbd24b189	-0.040208373
113	0xbd4a98b9	-0.049462054
114	0x3c23fbc1	0.010008753
115	0xbd3322bc	-0.043734297
116	0xbce093f4	-0.0274143
117	0xbd6f49b1	-0.058419887
118	0x3db800fd	0.089845635
119	0xbd866209	-0.065616675
120	0xbd8f7131	-0.070040114
121	0x3e28430b	0.16431825
122	0xbdcf000d	-0.101074316
123	0xbdc33fa9	-0.095336266
124	0x3e01ccab	0.12675731
125	0xbdd8c970	-0.10585296
126	0x3d27d987	0.040978935
127	0x3c49b4f2	0.012311207
128	0xbd82296c	-0.06355557
129	0x3bd2531b	0.0064185984
130	0xbd5400f3	-0.051758718
131	0xbc564565	-0.013078068
132	0x3cfae29a	0.03062563
133	0xbd06da24	-0.03292288
134	0x3b73c208	0.003719451
135	0xbe281489	-0.16414084
136	0xbdd61c0e	-0.1045457
137	0x3d1a27e5	0.037635703
138	0xbe32da85	-0.17466171
139	0xbe02382f	-0.12716745
140	0xbcfa6b81	-0.03056884
141	0xbe09784c	-0.13424796
142	0xbdd2de39	-0.10296292
143	0x3d197f74	0.037475064
144	0xbcdb6205	-0.026780138
145	0x3caedabd	0.021344537
146	0x3de82968	0.113360226
147	0x3de9bffb	0.114135705
148	0x3dd14394	0.10217968
149	0x3d9398ba	0.07206865
150	0x3e33447c	0.17506593
151	0x3d886862	0.066605344
152	0x3d2992d3	0.041399788
153	0xbbc78448	-0.006088767
154	0x3d6aac19	0.05729303
155	0xbda532f5	-0.0806636
156	0xba628aaa	-0.00086418784
157	0x3d416f0b	0.04722504
158	0xbdaf5160	-0.08560443
159	0x3d21b519	0.03947935
160	0x3d98cd7b	0.07461067
161	0xbda44be1	-0.08022285
162	0x3df06af9	0.117391534
163	0x3d88e1d5	0.06683699
164	0x3d7de5eb	0.061986845
165	0x3d835f3b	0.06414648
166	0xbcdd187c	-0.026989214
167	0x3c966db6	0.018362861
168	0x3d5f718b	0.054551642
169	0xbd615b4e	-0.055018716
170	0x3d469972	0.04848618
171	0xbe1b0c5f	-0.15141438
172	0xbe635be6	-0.22203025
173	0xbd524aa6	-0.05134072
174	0xbe1ead07	-0.15495692
175	0xbe17426a	-0.14771429
176	0x3cbdeef9	0.02318524
177	0xbdfb64f7	-0.12275117
178	0xbe056fb2	-0.1303089
179	0xbc7d243d	-0.015450534
180	0xbcd0136d	-0.025399888
181	0xbc631473	-0.013859856
182	0x3be96d84	0.007123651
183	0x3cb8a770	0.022540778
184	0x3c903f3a	0.017608274
185	0xbcf67b5e	-0.030088123
186	0xbcced6b2	-0.02524886
187	0xbccd71ab	-0.025078615
188	0x3c8ca253	0.017167246
189	0xbe05bd2f	-0.13060449
190	0x3e1196b8	0.14217651
191	0xbe1f4b79	-0.15556134
192	0xbe1f12cf	-0.15534519
193	0x3e2be4bf	0.16786478
194	0xbdc725aa	-0.09723981
195	0xbe1a3cce	-0.15062258
196	0x3e40785c	0.18795913
197	0xbcd48617	-0.025942845
198	0xbca3b3b3	-0.019983148
199	0x3c423dfa	0.011855597
200	0xbd167b1b	-0.036738496
201	0x3ca8f6a1	0.020625414
202	0xbbbbb20a	-0.005728011
203	0xbcd2662e	-0.025683489
204	0x3c1643e9	0.0091714645
205	0xbd4256cb	-0.047446053
206	0xbcc1cb08	-0.023656383
207	0x3c563d28	0.013076104
208	0xbcb1d176	-0.021706324
209	0xbdcdad2c	-0.100427955
210	0xbcbb8a6f	-0.022893159
211	0x3cbdb3e2	0.023157064
212	0xbdaa984a	-0.08329828
213	0x3c38ab00	0.011271238
214	0x3c405f51	0.011741475
215	0xbd1af7ed	-0.037834097
216	0xbd6c056c	-0.05762236
217	0x3b47d364	0.003049099
218	0xbd64cb8d	-0.055858184
219	0x3c97e3c2	0.01854122
220	0x3cded434	0.027200796
221	0x3adab08b	0.0016684694
222	0x3ce5a1ef	0.028031318
223	0x3ccf2520	0.025286257
224	0xbd6b5957	-0.057458248
225	0xbd257a05	-0.04039957
226	0xbda960fb	-0.08270451
227	0xbcfc4242	-0.030793313
228	0xbd2ee9ad	-0.04270332
229	0xbdb5e923	-0.08882358
230	0xbca62458	-0.020281002
231	0xbd91a803	-0.07112124
232	0xbce0835d	-0.027406389
233	0xbc951aa4	-0.01820118
234	0xbc8af5cc	-0.016962908
235	0x3cdcfa2d	0.026974762
236	0xbe00abf1	-0.1256559
237	0x3dfd1ae9	0.12358648
238	0x3beb2c33	0.0071769
239	0xbdf2811a	-0.118410304
240	0x3f099429	0.537417
241	0x3e660733	0.22463684
242	0xbe77f139	-0.24213113
243	0xbe18f388	-0.1493665
244	0xbeb5ff8f	-0.35546538
245	0xbd6b3960	-0.057427764
246	0xbda6f2c8	-0.081517756
247	0xbead0be7	-0.33798143
248	0x3cbd17c9	0.02308263
249	0xbdbf9c71	-0.09356011
250	0xbe850aee	-0.259849
251	0x3d6871c0	0.056749105
252	0xb8fa4ef6	-0.000119356366
253	0xbd03d87f	-0.03218889
254	0xbd4c8886	-0.049934886
255	0x3a19c421	0.00058657123

conv2d_dehaze4.bias f4 [16]
0	0xbc5f1742	-0.013616385
1	0xbd224929	-0.039620552
2	0xbd0df745	-0.034659643
3	0x3c8876f2	0.01665828
4	0xbd33f52c	-0.043934986
5	0x3c4e4618	0.012589954
6	0xbd4b7c98	-0.04967937
7	0x3c876718	0.016528651
8	0x3c6dc1ff	0.014511584
9	0xbb274e3c	-0.002552881
10	0xbd2cf98c	-0.042230174
11	0xbbce6d5e	-0.0062996587
12	0x3d4556b5	0.048178393
13	0x3cd927bf	0.02650821
14	0xbca3328e	-0.019921567
15	0xbcb7f183	-0.022454029

conv2d_dehaze5.weight f4 [16, 16, 3, 3]
0	0x3e548fb3	0.20757942
1	0xbcb3c5ac	-0.021944843
2	0xbc0ce5db	-0.008599724
3	0x3dce94a2	0.10086943
4	0xbc46ba79	-0.0121294195
5	0xbda0d956	-0.078539535
6	0xbd8c2b05	-0.06844143
7	0xbd1f66ed	-0.038916517
8	0x3d61b840	0.055107355
9	0xbd423f30	-0.04742354
10	0xbd2c4790	-0.042060435
11	0x3d9626dc	0.073316306
12	0xbce29ae0	-0.02766174
13	0xbd4dee50	-0.0502761
14	0x3b8347eb	0.004006376
15	0xbd0d2f9b	-0.03446923
16	0x3c437136	0.011928847
17	0x3cf36d5b	0.02971523
18	0x3d69debf	0.057097193
19	0xbd8a15b8	-0.06742424
20	0xbdab6fce	-0.083709344
21	0xbd9c0dfd	-0.076198556
22	0x3d4bd973	0.049767923
23	0x3cdcd78a	0.026958246
24	0xbca91c0d	-0.020643258
25	0x3d8a4dd4	0.06753126
26	0xbd6cf598	-0.057851404
27	0x3dc38cc4	0.09548333
28	0xbd8921ef	-0.066959254
29	0xbe89f160	-0.26941967
30	0x3ddd29b3	0.10798969
31	0xbd88ea17	-0.06685274
32	0xbe52be14	-0.20580322
33	0x3c8750cb	0.016518017
34	0xbe004905	-0.12527855
35	0xbdf2be92	-0.11852755
36	0x3d0c9496	0.03432139
37	0x3d2c8188	0.042115718
38	0x3c3a5a8e	0.011374129
39	0xbd09383c	-0.033500895
40	0xbd4992e5	-0.049212355
41	0xbc55189b	-0.013006355
42	0x3b35b946	0.002772884
43	0xbc5f4361	-0.013626904
44	0xbcd1ea9c	-0.025624566
45	0xbd43405d	-0.047668803
46	0xbe060cbc	-0.13090795
47	0xbe2271bc	-0.15863699
48	0xbccb2067	-0.024795724
49	0x3c9d2572	0.019182894
50	0xbd25596d	-0.040368486
51	0xbdb3fa6e	-0.08788
52	0xbde145f1	-0.109996684
53	0xbd6a5a46	-0.057214998
54	0xbc2386ce	-0.00998087
55	0xbcba6b5e	-0.022756275
56	0x3d76aaaf	0.06022137
57	0xbd8304b4	-0.063973814
58	0x3d02b9f7	0.03191563
59	0xbd09ec28	-0.03367248
60	0xbd9bec56	-0.07613437
61	0x3be6fa47	0.0070488784
62	0xbc50f684	-0.012754086
63	0xbd95e10b	-0.07318314
64	0xbd6e7c12	-0.05822379
65	0xbd5aa098	-0.05337581
66	0xbdab9c40	-0.08379412
67	0x3ca979aa	0.020687897
68	0xbd8abf18	-0.067747295
69	0xbdde95d2	-0.1086842
70	0xbd28c1e5	-0.041200537
71	0x3ade8894	0.0016977959
72	0x3d3e46af	0.046454128
73	0xbd6efc94	-0.058346346
74	0x3c53546c	0.012898546
75	0x3e2d6bf3	0.1693571
76	0x3de0a7d1	0.109695084
77	0x3da143e0	0.07874274
78	0x3e30916d	0.17242976
79	0xbdaadaae	-0.08342491
80	0xbd99f3c8	-0.07517201
81	0xbc3936e7	-0.011304594
82	0xbcc0e93f	-0.02354872
83	0xbcdb74a9	-0.026789026
84	0xbb01339b	-0.0019714597
85	0xbbcde4d0	-0.00628338
86	0x3bd98a09	0.0066387695
87	0xbd2654e0	-0.040608287
88	0xbce24ee4	-0.027625509
89	0x3cf118aa	0.029430706
90	0xbd847852	-0.06468262
91	0x3ceb16f2	0.028697465
92	0xbd1801b6	-0.037111007
93	0x3d75714f	0.059922513
94	0x3993a82c	0.00028163323
95	0x3cb62ab0	0.022237152
96	0xbd7bbb8d	-0.06145816
97	0xbd3a878b	-0.04553942
98	0x3c928fe4	0.017890878
99	0x3d35b0c6	0.044358037
100	0xbdc02437	-0.093819074
101	0xbd4483a4	-0.047977105
102	0x3ca42b23	0.0200401
103	0xbc79dc32	-0.015250253
104	0xbd54b22f	-0.05192774
105	0xbc0ad8bc	-0.008474525
106	0xbd99a106	-0.07501416
107	0x3ca5466e	0.020175185
108	0xbd7927cd	-0.060828973
109	0xbd33389d	-0.043755163
110	0xbd780b15	-0.060557444
111	0xbdcd1069	-0.100128956
112	0xbe4583a1	-0.19288494
113	0x3e2defe6	0.16986045
114	0x3cc91718	0.024547145
115	0xbdd75d1f	-0.10515808
116	0x3da0e3c1	0.078559406
117	0xbd87870b	-0.06617554
118	0xbb64fd96	-0.0034941188
119	0x3d44bf65	0.04803409
120	0xbe149790	-0.14510942
121	0x3d04a066	0.03237953
122	0xbcf97e1b	-0.03045564
123	0xbdacf571	-0.08445252
124	0xbdb4d33b	-0.088293515
125	0xbd8de294	-0.06927982
126	0xbd7bf7d0	-0.06151563
127	0xbc4560ed	-0.012047035
128	0xbd53d62c	-0.051717922
129	0x3d3e605e	0.04647862
130	0x3deff343	0.1171632
131	0x3de918b7	0.11381667
132	0x3d1e6b93	0.03867681
133	0xbb8e8493	-0.0043493
134	0xbd6b17cb	-0.057395738
135	0xbd924c2f	-0.07143437
136	0xbd9bbc6a	-0.076042965
137	0xbd83a4d8	-0.06427926
138	0xbdaa37c6	-0.08311419
139	0x3c8baf57	0.017051382
140	0xbda90d38	-0.082544744
141	0xbc73459a	-0.014848137
142	0x3d13bffb	0.03607176
143	0xbb551e50	-0.0032519288
144	0x3bceb00f	0.006307609
145	0xbcbeb557	-0.023279829
146	0x3a8437c1	0.0010087417
147	0xbda53ca5	-0.08068208
148	0x3c1c1e76	0.009528747
149	0x3d12b500	0.035817146
150	0x3ccc7370	0.024957389
151	0x3c03c788	0.008043177
152	0xbd4ac47e	-0.049503796
153	0x3c21d560	0.009877533
154	0x3d82a3ba	0.063788846
155	0x3d8d55ce	0.069011316
156	0xbcf106e6	-0.029422235
157	0xbc84d5f6	-0.016215306
158	0xbc3ced6b	-0.011531214
159	0xbd91f97c	-0.071276635
160	0x3bd60340	0.006531149
161	0x3d916703	0.07099726
162	0xbc3810f6	-0.011234513
163	0xbd8d791f	-0.06907868
164	0xbbb3d2eb	-0.00548779
165	0xbd85acbb	-0.06527086
166	0x3d7e4373	0.062076043
167	0x3da0aa04	0.07844928
168	0x3ab89256	0.0014081697
169	0xbd30dcbe	-0.043179266
170	0xbd8b009b	-0.06787225
171	0x3d847b24	0.064688
172	0xbd4d25f0	-0.05008501
173	0x3d74d5d7	0.059774246
174	0xbd05d4ce	-0.03267365
175	0xbdb45d5d	-0.0880687
176	0xbd81c1ed	-0.063358165
177	0xbcbdb0fb	-0.02315568
178	0xbda475ef	-0.080303065
179	0xbc746e56	-0.014918884
180	0xbd3e6856	-0.04648622
181	0x3c6b32ff	0.01435542
182	0xbd3b7cc4	-0.045773283
183	0xbda183a5	-0.07886437
184	0xbdc24467	-0.09485703
185	0x3d1f87ff	0.038948055
186	0xbd25bf4a	-0.04046563
187	0xbd89a8cf	-0.06721651
188	0xbd96eb9a	-0.07369156
189	0x3cf03ac2	0.029324893
190	0x3c5a1d3d	0.013312635
191	0xbceac680	-0.028659105
192	0xbda1442c	-0.07874331
193	0xbd856e86	-0.06515221
194	0xbc2aa596	-0.010415455
195	0xbcaf907c	-0.0214312
196	0x3c696cb6	0.01424711
197	0x3c7105e0	0.014710873
198	0xbd130513	-0.03589351
199	0xbd957aa8	-0.072987854
200	0xbce19bb0	-0.027540058
201	0xbd9a1353	-0.07523217
202	0x3d958336	0.07300417
203	0x3d846dab	0.0646623
204	0x3d9e4e36	0.07729761
205	0x3cbf08bb	0.023319593
206	0xbd892e74	-0.06698313
207	0x3c917f35	0.017760852
208	0xbbf9401e	-0.0076065203
209	0xbdadf594	-0.08494106
210	0x3d154a3a	0.03644774
211	0xbd5622bf	-0.05227923
212	0x3d774601	0.060369495
213	0x3cab276c	0.020892821
214	0xbda2c7a7	-0.07948237
215	0xbbcba824	-0.0062151123
216	0xbcf193d0	-0.029489428
217	0xbc127ab6	-0.008940389
218	0xbb98d2eb	-0.0046638153
219	0xbd93ac80	-0.07210636
220	0x3cfedf30	0.031112283
221	0x3d565fd3	0.05233748
222	0x3d89db04	0.06731227
223	0xbcaf6b23	-0.021413391
224	0x3d32bcf0	0.043637216
225	0xbda00906	-0.07814221
226	0xbd6ae16d	-0.05734389
227	0xbdc58289	-0.09644038
228	0xbda8f312	-0.08249487
229	0x3ce3ce9e	0.027808484
230	0xbd513c64	-0.051082984
231	0xbd27bc5f	-0.04095113
232	0xbd320e50	-0.04347068
233	0x3d153e70	0.0364365
234	0x3b98f116	0.0046674116
235	0xbce909c0	-0.028447032
236	0x3d7cd7ae	0.061729126
237	0xbc8c9ffb	-0.017166128
238	0x3d5f1cbe	0.05447077
239	0x3c69822b	0.014252226
240	0x3d976c7f	0.07393741
241	0xbd831060	-0.06399608
242	0x3d5ec206	0.054384254
243	0x3d022868	0.031776816
244	0xbd5e3c18	-0.05425653
245	0x3d93e8bb	0.07222124
246	0x3d67d8c6	0.056603216
247	0xbd20954b	-0.039204877
248	0xbd5be4e3	-0.05368508
249	0x3c5e5ea0	0.013572365
250	0xbd67d9d3	-0.056604218
251	0x3b78b8d6	0.0037951968
252	0xbcdc605c	-0.026901416
253	0xbd6b55be	-0.057454817
254	0xbd989110	-0.074495435
255	0x3d7a626c	0.06112902

conv2d_dehaze5.bias f4 [16]
0	0xbc195f5c	-0.009361114
1	0xbde42d63	-0.11141469
2	0x3cd3eb07	0.025868906
3	0xbd27df3a	-0.04098437
4	0xbdc6e22b	-0.09711107
5	0x3bcff3fc	0.006346224
6	0xbdf8c063	-0.1214607
7	0x3b9bb903	0.0047522797
8	0xba392c1b	-0.0007063762
9	0xbdb0ba16	-0.08629243
10	0xbc8f0b1c	-0.017461352
11	0xbbbc68a9	-0.005749781
12	0xbda4f9de	-0.08055471
13	0x3d0daf6c	0.034591123
14	0x3c2c6e4b	0.010524343
15	0xbd84e7ad	-0.06489501

conv2d_dehaze6.weight f4 [16, 16, 3, 3]
0	0x3db07ab1	0.086171515
1	0x3e0e7758	0.13912714
2	0x3d35a43e	0.044346087
3	0x3d6847e5	0.05670919
4	0x3d470605	0.048589725
5	0xbdef1b49	-0.11675126
6	0x3d0fe011	0.035125796
7	0x3d943f64	0.07238653
8	0xbd997bf8	-0.07494348
9	0x3cf42870	0.029804438
10	0x3d1bad8b	0.0380073
11	0x3d9f8397	0.07788771
12	0xbd6cb42b	-0.05778901
13	0x3d867ed7	0.065671615
14	0xbd60cfc8	-0.054885656
15	0x3d8b936c	0.06815228
16	0xbce9568b	-0.02848365
17	0x3b979396	0.004625748
18	0xbbf5dd55	-0.0075031915
19	0x3d88d724	0.0668166
20	0x3da1d9cb	0.07902869
21	0xbc5fb094	-0.013652939
22	0xbd97260c	-0.07380304
23	0x3bc62fb5	0.0060481676
24	0x3d7cf8ee	0.061760835
25	0xbd973496	-0.07383077
26	0xbcc6fe90	-0.024291307
27	0x3d00c405	0.03143694
28	0xbd90c21a	-0.07068272
29	0x3d93e8bb	0.07222124
30	0xbdc07912	-0.09398092
31	0x3c859688	0.01630713
32	0x3d327b8b	0.04357485
33	0x3d768de6	0.06019392
34	0x3c9cb799	0.019130515
35	0xbcf0d3ed	-0.02939793
36	0xbd855806	-0.0651093
37	0x3d272002	0.04080201
38	0xbd025f17	-0.031828966
39	0x3bf862ef	0.007580153
40	0xbdd0f462	-0.10202862
41	0xbce3c138	-0.027802095
42	0xbcc6af1c	-0.02425342
43	0xbd041e12	-0.03225524
44	0xbd52e39f	-0.051486608
45	0xbd29c49e	-0.041447274
46	0x3d73cf29	0.059523735
47	0xbc2d5b4f	-0.010580852
48	0xbc7a86dc	-0.015290942
49	0x3cc41944	0.023937829
50	0xbda7577f	-0.081709854
51	0xbd3d66de	-0.04624068
52	0xbd3d1603	-0.04616357
53	0xbcccdb12	-0.025006805
54	0xbdee8a4f	-0.11647474
55	0x3c966e92	0.01836327
56	0xbc59b9c9	-0.013288924
57	0xbd850ed0	-0.06496966
58	0x3d9de806	0.077102706
59	0x3b8823e1	0.0041546677
60	0xbe0b007a	-0.135744
61	0xbc905aba	-0.017621387
62	0x3d119230	0.035539806
63	0x3d297070	0.041366994
64	0xbda92744	-0.082594424
65	0x3d9e2d99	0.07723541
66	0x3c15a0b4	0.009132553
67	0xbcb28d3a	-0.021795858
68	0x3bb2323d	0.005438118
69	0x3c6dd55e	0.014516203
70	0x3d585dba	0.05282376
71	0x3c39e129	0.011345186
72	0xbd87ab50	-0.06624472
73	0x3d4bf504	0.049794212
74	0x3b94d0d6	0.0045414967
75	0x3ca53ec2	0.020171527
76	0xbd3bc357	-0.045840587
77	0xbda7a6f0	-0.08186138
78	0x3d410d0e	0.04713159
79	0xbdcc8460	-0.09986186
80	0x3c1e4bef	0.009661659
81	0x3bd54f07	0.006509665
82	0x3d1f4f64	0.038894072
83	0x3b25b900	0.002528727
84	0xbc5c3a8f	-0.013441696
85	0xbd46ca83	-0.048532974
86	0x3da06d79	0.0783338
87	0xbccecc0e	-0.025243785
88	0xbdc22eeb	-0.09481605
89	0xbdc3714e	-0.095430955
90	0xbc253960	-0.01008448
91	0xbc535b58	-0.012900196
92	0xbdac706d	-0.08419881
93	0xbbae6721	-0.0053223525
94	0x3c74bb74	0.01493727
95	0xbdd9ba75	-0.10631267
96	0x39c9de57	0.00038503364
97	0x3c748cc4	0.014926139
98	0xbba6e9ed	-0.005093804
99	0x3e20cc31	0.15702893
100	0x3d89a072	0.06720056
101	0x3df74b2d	0.120748855
102	0x3e03ba4b	0.12864034
103	0x3db35019	0.08755512
104	0x3ddb8386	0.107184455
105	0x3d5a1a89	0.053247962
106	0x3e070665	0.13186033
107	0x3ca792da	0.020455766
108	0x3c406e42	0.0117450375
109	0xbd1aa719	-0.037757013
110	0x3da9f41a	0.08298512
111	0x3bcac1a9	0.006187637
112	0xbd63a41c	-0.05557643
113	0xbb90d3ae	-0.0044197654
114	0xbdb3fcc6	-0.08788447
115	0xbd0c3922	-0.034234174
116	0x3c1d3b86	0.009596711
117	0x3cdd2e9b	0.026999762
118	0x3d818a65	0.06325225
119	0xbc9e77c6	-0.019344222
120	0xbaaaaa63	-0.001302075
121	0x3db57aed	0.08861337
122	0x3ce1ccbe	0.027563449
123	0x3cecdead	0.028914774
124	0x3d5d5a0e	0.05404096
125	0x3d8f8410	0.07007611
126	0x3c9c77ca	0.019100089
127	0x3d07f315	0.033190805
128	0x3da99e39	0.08282132
129	0x3b014619	0.001972562
130	0xbc897824	-0.01678092
131	0xbdbb0a66	-0.09132843
132	0xbcd73fee	-0.026275601
133	0x3cd6d0e2	0.02622265
134	0xbd34d663	-0.044149768
135	0xbdddb2c8	-0.108251154
136	0xbd38766f	-0.045034822
137	0x3d4d3f1b	0.05010901
138	0xbd9676fb	-0.073469125
139	0xbdda05a9	-0.10645611
140	0xbdb83943	-0.08995297
141	0xbd143f62	-0.03619326
142	0x3d41a368	0.047274977
143	0xbdd9e23c	-0.10638854
144	0xbc995c9e	-0.018720921
145	0x3d1763ef	0.03696054
146	0xbda665b0	-0.08124864
147	0xbd1d08c2	-0.03833843
148	0xbe4b87a7	-0.19875966
149	0xbe05c84e	-0.13064691
150	0x3c0f07d9	0.008729898
151	0xbdc53493	-0.09629168
152	0xbd1d5e9f	-0.038420316
153	0xbbf64596	-0.0075156195
154	0xbd5962e8	-0.05307284
155	0xbd52b7f7	-0.051444974
156	0x3bb154c0	0.0054117143
157	0x3b16fa56	0.0023037395
158	0x3b0e1219	0.0021678268
159	0xbce5a93b	-0.028034797
160	0xbd5f6c4e	-0.054546647
161	0xbd6c4c8c	-0.05769019
162	0xbc375e02	-0.011191847
163	0x3d75bc95	0.0599943
164	0xbd349abd	-0.044092882
165	0xbd91f90f	-0.07127582
166	0x3d86a0a9	0.06573612
167	0xbd918506	-0.0710545
168	0x3d0e2508	0.034703285
169	0x3dbaf661	0.09129024
170	0xbd75b055	-0.059982616
171	0xbb4eaa02	-0.0031534438
172	0x3aeb7e88	0.0017966786
173	0xbd773452	-0.06035263
174	0xbbca3696	-0.006171058
175	0xbc9d7b37	-0.019223792
176	0xbd7cb61e	-0.061697118
177	0x3c19bfce	0.009384109
178	0x3d814bb4	0.06313267
179	0x3c9ca40e	0.019121196
180	0xbe5b06a0	-0.21389246
181	0xbde85a3e	-0.11345337
182	0x3e2c1a64	0.16806942
183	0xbdf39414	-0.11893478
184	0xbd4d9c7f	-0.050198074
185	0x3da798bb	0.08183428
186	0xbe5fb075	-0.21844657
187	0xbde7600c	-0.11297616
188	0x3e44c9c7	0.19217597
189	0xbf2e7c0f	-0.6815805
190	0x3db005b9	0.085948415
191	0xbdc12d2d	-0.09432445
192	0xbf0d2074	-0.55127645
193	0x3d70546d	0.058674265
194	0xbda53dc5	-0.08068422
195	0xbf1be521	-0.608965
196	0x3df78fce	0.120879754
197	0xbccabde2	-0.024748746
198	0xbd73f8db	-0.0595635
199	0xbc380952	-0.011232691
200	0x3c4361db	0.011925186
201	0x3d35e16e	0.04440444
202	0xbdc7d983	-0.09758284
203	0x3dbf009b	0.09326287
204	0xbd2b8410	-0.04187399
205	0xbe31dd81	-0.17369653
206	0x3da3e039	0.080017515
207	0x3c4d0c53	0.012515145
208	0xbe0fe129	-0.14050736
209	0x3dca8602	0.09888841
210	0xbdbb282c	-0.091385216
211	0xbe2feac5	-0.17179401
212	0xbd97b4af	-0.074075095
213	0xbddcdd1e	-0.10784362
214	0xbd72aba3	-0.059245717
215	0xbe4246af	-0.18972276
216	0xbedd1f58	-0.43187976
217	0xbbd6c069	-0.006553699
218	0x3d474e1d	0.04865848
219	0xbebaa5c0	-0.36454582
220	0x3e12dfd7	0.143432
221	0x3e0f37b9	0.139861
222	0xbe39db5f	-0.1815009
223	0x3ddd8436	0.10816233
224	0x3dadc139	0.0848412
225	0x3c6f0c6b	0.014590363
226	0xbd647109	-0.05577186
227	0xbc053bb6	-0.008131912
228	0x3d1e5b13	0.038661074
229	0x3d3086c9	0.04309729
230	0xbd8974ca	-0.06711729
231	0xbd08345e	-0.033253066
232	0xbd81718b	-0.06320485
233	0x3c060431	0.00817971
234	0xbe8d5206	-0.2760164
235	0x3da70083	0.081543945
236	0x3d25c49f	0.040470716
237	0xbf00d935	-0.5033143
238	0x3e2a1cef	0.166126
239	0x3e35ff7f	0.17773245
240	0xbebb1ac9	-0.36543873
241	0x3e4d4e69	0.20049442
242	0x3e306fdd	0.17230172
243	0x3e766364	0.24061352
244	0x3dbc030b	0.09180268
245	0x3d86cf5d	0.0658252
246	0x3e27eaf1	0.16398217
247	0x3d80accc	0.062829584
248	0xbdc2af83	-0.095061325
249	0x3e59410f	0.21216224
250	0x3d2e1084	0.04249622
251	0xbe76b5e6	-0.24092826
252	0x3cd1f7d1	0.025630863
253	0xbd85c74c	-0.065321535
254	0x396399e1	0.00021705731
255	0x3dbca208	0.092105925

conv2d_dehaze6.bias f4 [16]
0	0xbd2cb9b2	-0.04216928
1	0xbd9de1f4	-0.07709113
2	0x3cf3d8f3	0.029766535
3	0x3c427a6e	0.01187001
4	0x3ceedf2a	0.029159147
5	0xbddffb55	-0.1093661
6	0xbcc0c353	-0.023530638
7	0x3cdad07d	0.026710743
8	0xbca738af	-0.020412771
9	0x3ceb4892	0.028721128
10	0xbb6e954b	-0.0036404904
11	0xbd94b951	-0.07261909
12	0xbdec5ba4	-0.115409166
13	0x3d0e9f30	0.03481978
14	0xbd8b3409	-0.06797034
15	0xbd7712c5	-0.060320634
